encoder_model.pth (torch, 214796 bytes, 10 tensors)

lstm.weight_ih_l0 f4 [256, 2]
000000 28 0d eb bd 73 58 d9 bd f6 12 bf bc 3f 0c 6b 3d
       -0.11477119 -0.106125735 -0.023324471 0.057384726
000010 4c db 0d 3e c6 ec 80 3d 3a 56 59 bd b0 25 11 3d
       0.13853186 0.06295161 -0.053060748 0.035436332
000020 d1 99 83 3d 1c 0b 9a 3d 9d 46 38 3c 59 47 a1 bd
       0.064258225 0.0752165 0.011247304 -0.078749366
000030 0c ae bd 3d c4 44 2f 3d ee 85 a5 bd dc 90 70 bd
       0.092617124 0.04279019 -0.08082186 -0.0587319
000040 3a bd 92 bd d7 49 be 3d 41 e6 2e 3c c9 cf ab bb
       -0.07164998 0.092914276 0.010675014 -0.005243276
000050 8b 13 1b bc bf 2c 6b bb af e3 c8 bc 74 8b c3 3d
       -0.009465109 -0.0035884825 -0.02452263 0.09548083
000060 3d 04 32 3d 6a f5 73 3d f3 61 88 3d 61 dd 84 3d
       0.043461073 0.059560217 0.06659307 0.06487537
000070 74 f4 81 3d 68 63 47 3b 05 bb 64 bd ac 53 a1 3d
       0.06345454 0.003042424 -0.05584242 0.07877287
000080 ce c6 a1 bd 24 29 73 bb 71 81 45 bc ea 55 da 3d
       -0.07899247 -0.003710338 -0.012054787 0.10660918
000090 d3 d9 c6 bd e1 ed 03 bc 5f 03 56 bd 34 17 7d bd
       -0.097095154 -0.00805232 -0.05224931 -0.061789706
0000a0 13 fd b6 bd bd ee de 3d d4 2b 80 3d 70 da b9 bc
       -0.08934989 0.108853795 0.062583596 -0.022687167
0000b0 ae 26 7b 3d 43 59 18 3d 0b ec c3 bd 9e de 6a bd
       0.061316185 0.0371945 -0.09566506 -0.05734121
0000c0 75 3e 84 3d c3 9b 19 3e 05 4e c2 bd a3 2b 10 3e
       0.06457225 0.15000825 -0.09487537 0.14079146
0000d0 ca 7a a8 bd 8f e4 5f 3d 72 4a 90 3b 8d 3e 17 3e
       -0.08226545 0.05466133 0.004403406 0.14769955
0000e0 ee 0c 8c bd 70 cf 0b bc b5 6a 55 bd 75 24 6e bc
       -0.06838404 -0.008533344 -0.052103717 -0.014535059
0000f0 1a 1e a8 3d e6 61 79 bc 47 17 44 bd 75 4e 56 3d
       0.082088664 -0.015221095 -0.04787376 0.052320916
000100 1a ea ec ba c1 f8 05 3d d5 cc 18 3e ff 74 71 bd
       -0.0018075139 0.032707933 0.14921887 -0.058949467
000110 fe 0a 98 3d e3 a6 c2 3d 78 46 b7 bd 0c 40 b6 3d
       0.074239716 0.09504487 -0.08948988 0.08898935
000120 f9 1f a0 bd 22 62 76 3d 5f c7 19 3d 3d ee a2 3d
       -0.07818598 0.06015218 0.03754365 0.079555966
000130 f9 c0 fd b9 02 e4 ed 3c 97 68 05 3d 12 d2 fb 3d
       -0.00048399696 0.029039387 0.032570448 0.12295927
000140 49 07 9a 3c 60 fe f3 3d 03 d3 49 bc e5 2d 01 bd
       0.018802302 0.119137526 -0.0123183755 -0.03153791
000150 06 b0 aa bd 7f e9 27 bd 5a b1 66 bd 2f f8 00 bb
       -0.08334355 -0.040994164 -0.05632148 -0.001967918
000160 4b da fb bd b1 ca f5 bd 4d cb b7 3d 3e c8 11 be
       -0.122974955 -0.12001551 0.089743234 -0.14236543
000170 39 c1 a7 bd 7e 08 0b 3e 1b 4b 54 bc 35 a1 24 bd
       -0.08191151 0.13577458 -0.01295736 -0.0401928
000180 d7 60 ef 3d 0f 2a 6d bd ad 0b 0c 3c 69 b7 ac bb
       0.116883926 -0.05790144 0.008547706 -0.0052708876
000190 62 c8 1d 3e 7e 4f 0d 3e 9c 80 ed bc d9 52 77 bc
       0.15408471 0.13799855 -0.02899199 -0.015095436
0001a0 2a 50 4b bd 82 23 f8 3d b9 6e bc 3c 49 c7 41 bd
       -0.049636997 0.121161476 0.023002015 -0.047309194
0001b0 8f 73 e1 bc 9f 7c 2d 3d 42 e8 b8 bd 5f 7e ca bd
       -0.027520923 0.042355176 -0.09028675 -0.098873846
0001c0 b0 e2 1f 3d 2f 6a 28 3d 31 79 29 3d cb e2 bc 3d
       0.039034545 0.04111689 0.041375343 0.09222945
0001d0 19 01 9d 3d cf d4 9d bc 94 56 ee 3d 2f 10 32 bb
       0.07666225 -0.019266514 0.11637607 -0.002717029
0001e0 af b7 9e bd 13 76 0c 3d 82 82 d1 3d 7e 06 0f 3e
       -0.077498786 0.03429229 0.102299705 0.1396732
0001f0 1d ed 9e 3c d4 f4 f6 3c 8e 67 92 3d ae 4f f7 3c
       0.019400174 0.03014604 0.07148658 0.030189361
000200 4e b6 9b bd 2c 29 27 3d 64 57 18 3e 33 a5 a8 3d
       -0.07603131 0.04081075 0.14877087 0.08234634
000210 99 f0 73 3d be 8b 61 3d b4 d0 c6 3c 2a d0 df bd
       0.059555624 0.05506491 0.02426944 -0.10928376
000220 57 d7 13 3e e1 1c ab bd 1d e5 7d bd a1 58 f5 3d
       0.14437614 -0.083551176 -0.061986078 0.11979795
000230 f8 54 d8 bc d4 09 fe 3d 76 bf a0 3d b4 4a b8 3c
       -0.026407704 0.12404218 0.07849018 0.022496559
000240 66 9c 59 bd 0a 33 28 bd d2 a5 b5 bc dd 11 e6 3d
       -0.05312767 -0.0410643 -0.022173796 0.11233876
000250 a6 fc 9d bd 01 10 17 3e f3 32 01 bd 75 52 ab 3d
       -0.077142045 0.14752199 -0.03154273 0.08365337
000260 54 e1 36 bd d5 34 45 bd ef 15 12 bd 87 c6 48 3c
       -0.044648483 -0.048146088 -0.03566545 0.012254364
000270 6e e0 ef 3d e6 0d 03 3e 63 b7 96 bd 35 65 4f bd
       0.117127284 0.1279827 -0.07359197 -0.050633628
000280 a7 3a 2a 3d fb 29 5f 3d 2f 9c 8c 3d 8e 23 e6 3b
       0.04155984 0.054483395 0.06865727 0.0070232814
000290 e6 36 92 3d b3 e2 36 bd 33 c9 86 3c 07 29 ab bd
       0.07139377 -0.04464979 0.016453361 -0.08357435
0002a0 33 12 12 3e 99 c6 46 bc 7f 9f bd 3d ef 88 0c 3d
       0.14264755 -0.01213231 0.09258937 0.034310278
0002b0 a4 71 f6 3d 33 ce 99 bd 29 ae db 3d d9 13 fd 3d
       0.12033394 -0.075100325 0.10726578 0.12357301
0002c0 72 48 15 bd f0 16 bc 3d ed 95 db 3d 37 63 fe 3d
       -0.036446042 0.091840625 0.107219554 0.124212675
0002d0 c7 93 7c 3d 72 b2 e1 3c 52 7e 5c bb ad 03 e7 3b
       0.06166437 0.02755091 -0.0033644629 0.0070499987
0002e0 ab a0 86 bd 83 5c 7b 3b 3a 45 0c 3e e9 e0 87 3d
       -0.06573614 0.0038354702 0.13698283 0.06634695
0002f0 75 99 d0 bc 38 45 83 3c 96 27 be 3d 76 cb a1 bd
       -0.025463799 0.016024217 0.09284894 -0.07900135
000300 ed 84 54 3d 38 89 c6 3c 2d 22 49 3c ca e5 95 3d
       0.05188458 0.024235353 0.012276215 0.073192194
000310 20 b5 a3 3c a2 b1 53 bd 00 9f 0e 3e c2 23 62 bc
       0.019983828 -0.051683076 0.13927841 -0.013802471
000320 40 28 22 bd c2 e5 90 bd d5 57 93 3d d6 c8 bc bd
       -0.039589167 -0.07075073 0.07194487 -0.09217994
000330 fd eb 99 bd fb 9a f2 3d 14 3f e1 3d ef 01 84 3d
       -0.07515714 0.118459664 0.10998359 0.06445681
000340 7d 6c c5 3d cf a2 cc 3d e5 eb 90 3c e7 ae 05 3d
       0.09639833 0.09991991 0.017690608 0.032637503
000350 40 e8 32 bd 9b 75 85 bc ae 53 98 3d a6 58 de 3c
       -0.043678522 -0.01629143 0.07437836 0.02714188
000360 97 24 c4 3d fa 70 1d be d4 ab bf 3d d1 94 c0 bd
       0.095772915 -0.15375128 0.093589455 -0.094033845
000370 86 d8 af 3d 20 93 89 bb 1a 0c c2 3d a9 d1 59 3d
       0.085862204 -0.004198447 0.094749644 0.053178463
000380 e3 71 b6 bb 08 b8 b3 bd b9 ec 0e 3d 03 47 df bd
       -0.0055677756 -0.087753356 0.034893725 -0.10902216
000390 74 92 c1 bd 19 87 e7 3d 2d 8a d7 3d 5f b2 da 3c
       -0.09451762 0.11305065 0.10524402 0.026696382
0003a0 ad 2f 87 3d 55 af 89 3c 0f 55 31 bd 15 34 8f 3d
       0.0660089 0.016807238 -0.04329401 0.06992356
0003b0 76 2f 82 bd 1f 31 a8 3d 9f e5 d2 3d 23 57 46 3d
       -0.06356709 0.08212494 0.10297703 0.048422944
0003c0 e2 88 34 3b 1c 71 1e 3d 71 7d 56 bd 46 40 03 3e
       0.0027547409 0.03868209 -0.052365724 0.12817487
0003d0 15 77 8a bd 39 2f 19 3e 01 b7 8d 3b 16 59 79 bd
       -0.06760994 0.1495942 0.0043247943 -0.060875975
0003e0 ab 61 f3 bc 69 f0 e7 bc 78 1d ce 3d ff c6 f3 3b
       -0.029709658 -0.028312879 0.100642145 0.0074394937
0003f0 4b 50 6c bd 84 8f 11 3e e7 5c b2 3d 7f 36 e3 3d
       -0.05769376 0.14214903 0.08709126 0.11094379

lstm.weight_hh_l0 f4 [256, 64]
000000 1e 35 ce bd 78 47 9c 3d 78 88 bd bb 29 d5 bc bd
       -0.10068725 0.07630819 -0.0057840906 -0.092203446
000010 29 1f 63 3d a5 d7 88 3d 68 d6 09 3e 49 44 41 3d
       0.05544964 0.06681756 0.13460696 0.047184262
000020 38 28 26 3b 58 c1 de 3d da cd 11 3e 4c 4a 1b bd
       0.0025353562 0.10876721 0.14238682 -0.037912652
000030 6d 69 68 3d dc d7 05 3e b5 71 0d bd b5 3e 15 be
       0.056741167 0.13070625 -0.034532268 -0.14574702
000040 80 15 46 3c 47 b6 aa bd a6 80 34 bd 5c 00 16 3e
       0.012090087 -0.08335548 -0.044068 0.14648575
000050 8e b3 1a bd ad a6 5f bd 68 4a 9a 3d 9f 7c 12 bd
       -0.037768893 -0.054602314 0.07533723 -0.03576338
000060 72 19 f3 bd 0e d1 59 3d 3a 70 26 3d fa 17 a0 bc
       -0.11870088 0.053177886 0.04063437 -0.019542683
000070 fb 34 c0 3c 8c 5f 0d 3a 14 f6 ec 3a 86 88 d4 bd
       0.023462763 0.0005392961 0.0018078708 -0.10377602
000080 ce 44 fe 3d 49 b7 95 3d 2e 9d d9 3d 0a fc fa 3d
       0.12415467 0.073103495 0.10625683 0.12255104
000090 0c 0f e3 3d f2 19 bc 3d c3 08 50 3d 42 d1 08 bd
       0.11086854 0.09184636 0.050789606 -0.03340269
0000a0 00 40 f4 bd 65 13 b3 bc c1 c2 17 3d 8b 9c 52 bd
       -0.119262695 -0.021859834 0.037050966 -0.051418822
0000b0 56 77 ad bd ac fa ff bd ae 20 8d 3d 20 9b e0 3d
       -0.08470027 -0.12498984 0.06890999 0.10967088
0000c0 22 0f 8d 3d 0e 3d ac 3d 5a c8 1e bc 05 af 90 3d
       0.06887652 0.08410083 -0.009691322 0.07064632
0000d0 96 fb 18 bc b5 96 44 3d 61 3f b7 3c d3 0c 0d be
       -0.0093373265 0.047995288 0.022369089 -0.13774423
0000e0 3c fa e7 bd 87 7f 73 3c b1 bf 1b bd 9f ed e1 3c
       -0.11327025 0.014861948 -0.038024608 0.027579127
0000f0 79 c9 c6 bd bf 34 2c 3d da ad cb bd 7e 75 54 3d
       -0.097063966 0.04204249 -0.09945269 0.05186986
000100 70 c1 3b bd 00 a9 e4 3d c9 a1 94 3d b5 a5 c4 3d
       -0.045838773 0.11165047 0.072574206 0.096019186
000110 14 6b 16 3e 64 a3 64 bd 0e cd bc 3d ba f2 40 3c
       0.14689285 -0.055819884 0.092187986 0.0117766205
000120 b0 67 cc bd 5a a8 0b bc 7b 1e fa 3c 66 38 0a be
       -0.09980714 -0.008524025 0.030532112 -0.13498077
000130 67 7c 91 3d a2 5c 7e 3d e2 00 33 3b a4 23 0d 3b
       0.07103806 0.06210006 0.0027313759 0.0021536136
000140 6a e7 81 3d df 0d 9e bd c4 fd 02 3d 00 ed 16 be
       0.06342967 -0.077174895 0.03198029 -0.14738846
000150 b1 33 95 3c dc ca 91 3d 4b a9 1c bd 66 5d a6 bd
       0.018213125 0.071187705 -0.038247388 -0.08123283
000160 8d 5a 44 bd 33 2b 82 bd 76 bc ee 3d e7 60 36 3d
       -0.04793792 -0.06355896 0.1165704 0.044526007
000170 70 ca 83 bd 05 b3 b6 bd 19 55 9c bd 47 d1 60 bd
       -0.06435096 -0.08920864 -0.076334186 -0.054887082
000180 72 d5 c5 3c 1c 0f 17 be 91 cb 0c be e4 b4 06 be
       0.02414963 -0.14751858 -0.1374953 -0.13154942
000190 9a 2e 14 be 6a df 9e 3d 47 85 c4 3d 74 11 a8 bd
       -0.14470902 0.077574566 0.09595733 -0.08206454
0001a0 3a df bc 3d cc 74 53 bd 22 e7 12 bc 7a 1d bc 3b
       0.092222646 -0.051625058 -0.008966239 0.0057408186
0001b0 d3 60 28 bd a6 b0 46 3c 43 c0 08 3c 94 58 e8 bd
       -0.041107964 0.012127077 0.00834662 -0.1134502
0001c0 3c 31 4e 3d 98 c9 19 bd 90 24 c0 3d 61 29 83 3d
       0.050339922 -0.03754577 0.09381974 0.06404377
0001d0 e1 1b f8 3d 71 97 aa bc 03 85 c2 bd 21 ec 08 3e
       0.121146925 -0.020824166 -0.09498026 0.13371326
0001e0 f6 ad bb 3d ae 8b 26 bd fb ed a8 bd c7 6b 0e bd
       0.0916404 -0.040660553 -0.08248516 -0.034770753
0001f0 ee ed e7 3d 5b 00 8a 3d d0 2a 65 3c 5e 3b 78 3d
       0.11324678 0.06738349 0.013987258 0.060603492
000200 26 45 d4 bc be 63 08 3e de 79 3b bb f0 e5 f1 3b
       -0.025911879 0.13319299 -0.0028606574 0.007382147
000210 40 63 c3 bd ca 10 bf 3d 93 cf 0f be 5f 21 c0 bd
       -0.09540415 0.09329374 -0.14044027 -0.09381365
000220 41 44 33 bd 3a d3 b8 3d 8c fc 3c bd a0 74 19 bd
       -0.043766264 0.09024663 -0.046139285 -0.037464738
000230 b8 92 e9 bd 02 b5 01 be dd 8d 65 3d fd 9e 00 bd
       -0.114049375 -0.12666705 0.056043494 -0.031401623
000240 22 bf 87 3d 44 4b e1 3d 60 eb b7 3d e2 d3 6e 3d
       0.066282526 0.11000684 0.08980441 0.058307536
000250 96 21 eb bd b4 fe 30 3d c1 20 0a 3e 9c 22 02 be
       -0.114810154 0.043211654 0.13489057 -0.12708515
000260 5c db d8 3d f4 a3 18 be d8 dc b5 bd b9 c8 64 bd
       0.105887145 -0.14906293 -0.08880013 -0.055855487
000270 60 fc b4 bd c3 07 18 bc 5a 57 a2 3d cf 47 0b be
       -0.08837199 -0.009279194 0.07926817 -0.13601612
000280 00 ee 73 bd f8 a8 16 be 3d 29 93 3b a1 21 cc 3c
       -0.059553146 -0.14712894 0.004491 0.02491838
000290 07 3c de bd 17 12 07 be ff 2b 76 bd 88 a4 e3 bc
       -0.10851293 -0.13190494 -0.06010055 -0.027788416
0002a0 27 82 63 3d 0b 4c af bd ce 98 9f 3d 76 dc 10 3e
       0.055544045 -0.08559426 0.07792817 0.14146599
0002b0 8a bd ca bc f3 a0 c4 bd 76 e1 8e bc ad 7c 85 3d
       -0.024748582 -0.09601011 -0.017441493 0.06517921
0002c0 22 e6 ff 3d 2a 78 76 3c 42 09 97 3c a1 49 fa bc
       0.12495066 0.015043298 0.018437032 -0.030552687
0002d0 87 d3 0d 3e 25 a6 ea bd 1f 85 b2 bd b1 50 a1 bd
       0.13850223 -0.11457471 -0.08716797 -0.07876719
0002e0 ad cc 00 3e 8b 72 a7 3d e0 21 c7 3d 46 a8 1c be
       0.12578078 0.08176144 0.09723258 -0.15298566
0002f0 9d 6d e4 3b 03 b6 ea bc f5 ef 15 bd 4e 33 85 3d
       0.0069710747 -0.028651243 -0.036605794 0.06503926
000300 30 29 85 3d 0c 31 fd 3d 21 4d 09 3e f9 42 2b bd
       0.065019965 0.123628706 0.13408329 -0.041811917
000310 7f 20 ac 3d 5b 77 a9 3d 30 d9 54 bc 50 71 91 bd
       0.08404636 0.082747184 -0.012991235 -0.07101691
000320 d5 ff e8 3d b0 e7 08 3c 2c 5d d8 bd 6b aa 76 3c
       0.11376921 0.00835602 -0.10564646 0.015055279
000330 30 8a 5f 3d 2d 48 d6 bd 7a 6c 15 3e cb 4d 75 3d
       0.054575145 -0.10462985 0.14592162 0.059888642
000340 8d 5f a5 3d b6 23 b8 bd 4e c4 6e 3d 08 5c 53 3d
       0.080748655 -0.08991186 0.05829268 0.05160144
000350 af 32 7f 3d ba 80 9d bb e0 64 9d 3d 2f 47 95 bd
       0.062304195 -0.004806605 0.07685256 -0.07288968
000360 6a 4d 06 3e 36 27 cc 3c ed d0 e3 3c e5 b2 28 3d
       0.13115469 0.024921041 0.027809585 0.041186232
000370 a0 c3 d4 3d aa 7b 6e 3d d7 21 c8 bd fc b3 58 3d
       0.10388875 0.058223404 -0.097720794 0.05290602
000380 b7 49 2e 3c 62 46 05 bd ab ec e4 3d b6 b7 be 3d
       0.010637692 -0.032537825 0.11177953 0.09312384
000390 bf e7 c5 bd cc d8 12 3e 31 c3 6c bd 4d db 3c bc
       -0.09663343 0.14340514 -0.057803337 -0.011526895
0003a0 94 a2 b9 3b cf e1 f9 bd 2d 80 7f 3d 44 e3 3b 3d
       0.005665133 -0.12201273 0.062378097 0.045871034
0003b0 8e a0 a1 3d db ec 93 3d 59 e4 0b 3d 36 83 ac 3c
       0.078919515 0.07222911 0.034153316 0.02105866
0003c0 48 72 05 3d a7 36 0f 3e fb 2d d7 bc 0d 7a e3 3c
       0.03257969 0.13985692 -0.026267042 0.02776816
0003d0 71 be 1b 3e fd ef e7 bc c9 25 70 3d 3b c5 c5 bd
       0.15209366 -0.028312678 0.058629785 -0.09656759
0003e0 95 66 0b 3e 8b 14 7a 3b d8 a0 c1 bd 91 ba ee bd
       0.1361335 0.0038159217 -0.09454507 -0.116566785
0003f0 01 53 f7 3d b4 30 8e 3d ce 6e 32 bd 04 f2 51 3b
       0.120763786 0.06942883 -0.043562703 0.0032035122

lstm.bias_ih_l0 f4 [256]
000000 f3 1c 19 bc c1 97 0f 3e 57 97 45 bd e7 56 b9 3c
       -0.009345281 0.14022733 -0.048240032 0.022624446
000010 63 17 50 bb 71 22 ae 3d 5a 00 ad 3d 15 30 51 bd
       -0.003175222 0.08502663 0.08447333 -0.051071245
000020 fa f7 8a bd 1e 17 74 ba a8 ba 6b bd 1e 6d 5a bc
       -0.06785579 -0.0009311306 -0.057551056 -0.01333168
000030 ab 9f d6 3d 91 29 9e 3d b9 b8 47 bc 68 f4 5c bd
       0.10479673 0.07722772 -0.012190037 -0.05394402
000040 87 00 49 3c 91 69 13 3d bd e3 83 bb d9 d4 b5 3d
       0.012268192 0.035989348 -0.0040249513 0.08878488
000050 9b f5 a0 3c 05 2c 15 3d ac 23 bd 3d 90 67 05 b8
       0.019648364 0.036418933 0.092353195 -3.180612e-05
000060 11 6a 80 3d ad 27 83 bd f5 4c 26 3d f2 69 10 3e
       0.062702306 -0.06404052 0.040600736 0.14102915
000070 42 ac 14 3e dd 1d 8c 3d 44 1b cf 3d c4 0e 5b bd
       0.14518836 0.068416335 0.101126224 -0.05348088
000080 5a 54 35 bc dc d5 fa 3d d9 39 d7 3d f6 12 a0 3c
       -0.011067474 0.12247822 0.105090804 0.019540291
000090 ae 08 18 3d 50 ec aa 3c 02 3b a7 3d 50 e3 c9 bd
       0.037117653 0.020864636 0.08165552 -0.098578095
0000a0 2b 86 9f 3b 35 bd b2 3d 46 70 32 3c 74 b5 72 3c
       0.004868289 0.087274946 0.010891026 0.01481377
0000b0 3f db 09 be 1a 4f 93 3d 17 41 12 bd 91 ba 57 bb
       -0.13462542 0.07192822 -0.035706606 -0.0032917599
0000c0 92 ba 89 3d a9 cc 15 3e 67 2d 91 3d 19 6b 8b bd
       0.067250386 0.14628853 0.07088738 -0.06807537
0000d0 e3 e0 01 3e c6 2e 66 3d b4 94 ce 3d e5 e7 f5 bc
       0.12683444 0.05619695 0.100869566 -0.030017802
0000e0 7f d9 e0 3d c5 2a e6 bd 91 48 f9 3d b9 6c 6a bd
       0.10978984 -0.112386264 0.12172044 -0.057232592
0000f0 2b ab 96 3d f5 ea 78 bd 52 0e 95 bd 11 4e ab 3d
       0.073568664 -0.060770947 -0.07278122 0.08364499
000100 43 c9 06 ba 13 6a ae 3d 86 7d 70 3d 05 ee 6d 3d
       -0.00051416847 0.08516326 0.05871346 0.05808832
000110 73 6d a3 bd 53 e6 f2 bb c6 4a 5b bd 56 8c 8a 3d
       -0.0797986 -0.0074127107 -0.053538106 0.06765048
000120 5c 8c 78 3d 29 27 6b bc 6c 7c 59 bd e1 aa 92 bd
       0.060680732 -0.014352598 -0.053097174 -0.07161499
000130 9b cc b8 bc 1d 4d b6 39 7b ad 71 3d fe b5 46 bd
       -0.022558501 0.000347712 0.059003334 -0.048513405
000140 29 72 a7 3d 2e e6 1e 3d c2 01 93 bd 53 da 9f bd
       0.08176071 0.038793735 -0.0717807 -0.07805314
000150 8f 6c 50 3d a5 57 cc 3d be 2a 06 3e fa ac 0c 3e
       0.05088478 0.09977654 0.13102242 0.1373786
000160 4c ba ca bd 0a 86 17 3e eb 70 ad 3d 75 16 0e 3d
       -0.098988146 0.14797226 0.08468803 0.034689385
000170 ab 3c c1 3d a3 bd 69 bd 35 06 b9 bd 0c 90 15 bd
       0.094353996 -0.057065617 -0.09034387 -0.036514327
000180 5e 4b bd bd ee 33 4f bd 82 15 c7 3b fa c7 ca 3d
       -0.09242891 -0.050586633 0.006075562 0.09901424
000190 96 19 11 3e b5 dc a2 bd 63 fb 4e bb a0 09 92 bd
       0.14169917 -0.07952253 -0.0031582944 -0.07130742
0001a0 d5 08 a2 3d ba d5 9c bc a4 14 d3 bd 31 eb 7b bd
       0.07911841 -0.019144882 -0.10306671 -0.061503593
0001b0 d8 8b 5c 3c f2 c4 98 3c 0f 48 0e 3e a3 19 8e 3d
       0.013461076 0.018648598 0.13894676 0.069384836
0001c0 6d 28 3b 3d 8d f4 54 3d 91 81 ac 3d 8b 6e 17 3d
       0.04569285 0.051991034 0.0842315 0.036970656
0001d0 10 54 80 bc 5e 2f d2 3d ef 43 09 3e 53 4b ab 3d
       -0.015665084 0.10262941 0.13404821 0.08363976
0001e0 60 2e 0b 3e 0f ad de 3d f7 3e af 3d 34 65 16 3d
       0.1359191 0.10872852 0.085569315 0.03671761
0001f0 c0 46 d7 bc d5 6a d8 3c 2d 42 b4 bc 3d d7 b5 bd
       -0.026278853 0.026418129 -0.022004211 -0.08878944
000200 3b b5 ab 3d 14 be 37 bc 78 6e 8d bd 0e 52 d9 3d
       0.08384176 -0.011214752 -0.06905836 0.10611354
000210 09 a2 f7 3d 9b 6c bf 3b f1 f9 fb 3b e3 27 30 bd
       0.12091453 0.005841804 0.0076897074 -0.04300679
000220 5c 5a 8a bd 15 fe d0 3c 1c 22 d3 bc d2 56 f8 bd
       -0.06755516 0.02551178 -0.0257731 -0.12125935
000230 1f aa 94 bc 78 9f 5b 3d 99 ba a1 bd 70 30 f7 bc
       -0.018147526 0.053618878 -0.07896919 -0.030174464
000240 b5 f9 5b 3d e1 1f 1d 3e 25 9a 3e bc 9a 43 3b bd
       0.053704936 0.15344192 -0.011633431 -0.045718767
000250 65 d6 a6 3d 02 87 e9 3d b2 19 6a bd 3b 2f 80 bd
       0.08146361 0.11402704 -0.05715341 -0.062590085
000260 be ba 8a 3a 14 09 91 bd 1c 4f f4 bd c8 21 80 3c
       0.0010584218 -0.0708181 -0.119291514 0.015641108
000270 4a c0 f4 bd eb 8a 03 3e a7 15 91 3c 3f a6 65 3d
       -0.11950739 0.12845962 0.01771052 0.056066748
000280 72 6f 94 3b b8 c8 e2 3c aa 5c 66 bd 10 05 34 bd
       0.004529887 0.0276836 -0.056240715 -0.04395014
000290 eb 16 58 3d 3e 59 16 bd 42 8a 02 bd cb f0 86 3d
       0.05275623 -0.0367062 -0.031870134 0.06588896
0002a0 93 79 cf 3d 2b e2 08 be 8d 4d 17 be e7 67 7e 3c
       0.1013061 -0.13367526 -0.14775677 0.015527702
0002b0 19 ce 1b be 99 e1 c8 bc 3f 8d 2f 3d ce a6 1c 3d
       -0.15215339 -0.024521636 0.042859312 0.038245015
0002c0 cb 43 98 3c b7 b4 46 bd 4b 58 c7 3d b7 70 a1 3d
       0.018587014 -0.048512187 0.097336374 0.07882827
0002d0 a7 c6 3c bd 77 82 a0 bd ba ef 02 bd 00 c0 c8 bd
       -0.046087887 -0.07837384 -0.031966902 -0.09802246
0002e0 ae d6 5c 3b 75 39 7a bd d1 d8 01 bd 2c 36 a5 3c
       0.0033697295 -0.06108995 -0.031700913 0.020167433
0002f0 39 fe c4 3d 40 de 0b 3e 79 b5 80 3d 7c d6 f2 3d
       0.096188016 0.13659 0.06284613 0.11857316
000300 2e ff 6f bd 50 89 bd bd c0 72 ac 3d 44 b5 3d 3d
       -0.058592968 -0.09254706 0.08420324 0.046315446
000310 55 bc 9e 3d 95 cd 9f bd 57 c3 86 3d 17 69 8d 3d
       0.07750765 -0.078028835 0.06580227 0.0690481
000320 7d 4a c4 3d ce dd af bd 6b df 82 3c c5 f1 e1 3d
       0.0958452 -0.08587228 0.015975675 0.11032442
000330 7a 45 9f bd 77 2f e0 bc fd a8 55 bd ff 15 51 bd
       -0.077769235 -0.027366383 -0.052163113 -0.051046368
000340 12 7b 1e 3d 66 aa 72 3d 69 e4 f7 bc 27 1f 01 3e
       0.038691588 0.059244536 -0.030260282 0.1260954
000350 07 46 e6 3d 2d 53 ea 3d 4c 5a 80 bd 52 70 6b bd
       0.112438254 0.11441646 -0.06267223 -0.057480164
000360 e6 d5 14 3d fe 0a 1d 3e 94 aa 9f 3d 79 13 c8 3c
       0.036336802 0.15336224 0.07796207 0.024423348
000370 02 7a 9c bd 5d c4 20 3e 29 56 d8 bd 4e f7 af bd
       -0.07640459 0.15699907 -0.10563309 -0.085920915
000380 9a 5c 63 bd 61 e5 12 3b 9c 85 8a bd 71 ed e2 bc
       -0.055508234 0.0022414553 -0.06763765 -0.027701112
000390 e1 52 18 bc b7 1e ef 3d 79 8f 95 bd 79 80 9d bd
       -0.009297104 0.1167578 -0.07302756 -0.0769052
0003a0 ad 8f ae 3d 9b 68 3f 3c c4 c4 0b be c0 a8 4f bd
       0.08523498 0.011682655 -0.13649279 -0.050698042
0003b0 50 35 79 3d e9 33 d1 bd 92 74 4c bb af 4a 94 3d
       0.06084186 -0.10214979 -0.003119741 0.07240807
0003c0 b6 7e e0 bc b9 17 c4 3d 10 b6 18 3d f4 8c db bd
       -0.02740417 0.09574837 0.037283003 -0.10720244
0003d0 5f b2 01 3e 9d d0 1d 3d 06 2d c7 bd 24 d0 09 bd
       0.126657 0.038529027 -0.097253844 -0.033645764
0003e0 33 83 11 bd 22 82 db 3d f8 b6 ee 3b 6e 62 b4 3d
       -0.035525512 0.1071818 0.007284995 0.088078365
0003f0 cc 60 fe 3b 61 5d bf 3d 6e de 94 3d ea d9 24 bc
       0.007763004 0.093439825 0.072689876 -0.01006172

lstm.bias_hh_l0 f4 [256]
000000 69 f7 6b 3c ca 48 85 bd e3 a7 fb 3c 20 ea b8 bd
       0.014402249 -0.06508024 0.030719703 -0.09029031
000010 8c 6e 16 bd 71 22 87 bd 71 ea c6 3d 80 26 06 3d
       -0.03672652 -0.06598366 0.09712685 0.03275156
000020 7e e4 bf bd e2 af 61 bd a8 fc 59 bc 66 c9 d6 bd
       -0.09369753 -0.055099376 -0.013304867 -0.104876325
000030 2c 37 4f bd 55 28 b7 3d 43 fe 95 bd 19 9f de bb
       -0.050589725 0.089432396 -0.07323887 -0.0067938683
000040 09 45 26 bd 4c 2e 81 bc dc 1e 7b 3d 0f 31 83 bd
       -0.04059318 -0.015769146 0.061308727 -0.064058416
000050 b5 47 ca 3c ef 18 8f bd a4 0a 7c bd 1b f5 2c bd
       0.024692396 -0.069871776 -0.061533585 -0.04222594
000060 e9 cf 60 bc f2 ed 82 3d 21 6b 4b 3d e8 c5 7e bd
       -0.013721445 0.06393041 0.049662713 -0.062200457
000070 bc f9 3f bd 82 a2 53 3d d6 2a 1d 3d 1b dc 08 3e
       -0.046869025 0.05166865 0.03837093 0.13365214
000080 1e 00 43 bd ed 99 1d bd a1 13 0a 3e df cc 78 3d
       -0.047607534 -0.038476873 0.1348405 0.060742255
000090 bd 2b c4 bd 05 f8 92 bc 35 8b 84 3d 2b 8f 70 bd
       -0.09578655 -0.01794053 0.06471864 -0.058730286
0000a0 b1 2c 40 3c 82 8e 16 3e 67 28 99 3d 27 0a 62 bd
       0.011729405 0.147028 0.07478409 -0.055185463
0000b0 cd dd 20 bd 94 18 8d 3d 54 d4 b0 bc 46 6b 88 3d
       -0.039274026 0.068894535 -0.021585621 0.06661086
0000c0 f2 97 f9 bc b9 bc a5 3c de 12 28 3d ff 88 c9 3c
       -0.030467961 0.020231592 0.04103362 0.024601458
0000d0 d7 39 b8 bd 1a 08 79 3d 85 95 17 3d 2c d1 ca 3d
       -0.08995407 0.060798742 0.037007827 0.099031776
0000e0 0b 8b 0b 3d ab d5 91 3d 28 78 51 3d 99 c9 20 3d
       0.03406815 0.07120832 0.05113998 0.03925476
0000f0 67 55 8b bd cf e4 bf 3d 97 36 b1 3c b1 f2 af 3d
       -0.068033986 0.09369814 0.021632476 0.085912116
000100 cf e6 00 be 06 3c 9e 3d eb b7 0c 3e a5 7b 9e 3d
       -0.12588046 0.07726292 0.13742034 0.07738427
000110 76 01 39 bd 03 63 f4 3d 76 e4 98 3d 73 c4 1e 3e
       -0.04516741 0.119329475 0.074654505 0.15504627
000120 fe 0f ab bd 69 5f b7 3d cd 8e a6 bd 6e 9a 85 3d
       -0.0835266 0.08953745 -0.08132706 0.06523596
000130 14 d5 07 3e 29 bc 0f 3e 6e 44 d0 3d 64 07 1b 3c
       0.13264877 0.14036621 0.10169302 0.009462211
000140 35 f2 67 3c f3 04 d4 3d cc 07 36 3d c3 83 98 3d
       0.014156868 0.103525065 0.04444103 0.074470066
000150 b0 42 1c bd 3a e7 1d bd c3 3f 9b bd 93 b2 94 3b
       -0.038149536 -0.038550593 -0.07580521 0.0045378893
000160 f1 20 bd 3c 17 e7 8f 3d 6c 4a 4b 3d 0b 1b 9e 3c
       0.023086997 0.07026499 0.04963152 0.019300004
000170 53 b7 5b bc d8 5c a4 3d ff 43 2a bd 58 49 b0 3d
       -0.013410407 0.08025521 -0.041568752 0.08607739
000180 1d 4d 25 3c d7 ce 24 bc 07 68 3f bc 54 51 a9 bd
       0.010089186 -0.01005908 -0.011682517 -0.08267465
000190 a4 d5 11 3e 5b 47 85 3d 84 68 a4 3d 0c 3e aa 3d
       0.14241654 0.065077506 0.08027747 0.08312616
0001a0 8a 86 5e bd 90 fa 0f 3e 44 51 b2 bd 5c 17 94 3d
       -0.054327525 0.14060426 -0.087069064 0.07231018
0001b0 40 39 44 3d 01 bb 9e 3d 9e 78 81 bd 8f e3 15 3e
       0.04790616 0.07750512 -0.06321834 0.14637588
0001c0 fe 15 75 3d ae db a5 3d 5b bd a3 bb d5 64 d4 3d
       0.059835427 0.08098541 -0.004996938 0.10370795
0001d0 8f dc 9a bd 57 b4 dd 3c 4b ec 48 bd 05 7a 9f bd
       -0.075615995 0.027063532 -0.04905347 -0.07786945
0001e0 1b 1d 9e bc 24 00 13 3c f1 0c c3 3d ab 8e 16 bd
       -0.019300988 0.0089722015 0.09523953 -0.036757153
0001f0 39 68 88 bb cc bd ca 3d cd 15 d5 3d d6 2c 63 bd
       -0.004162815 0.09899482 0.10404549 -0.05546268
000200 ab 5a 89 bd 0d e6 81 bd ed 1d 46 3d 58 21 e5 3c
       -0.06706747 -0.06342707 0.048368383 0.027970001
000210 1b 49 69 bd b9 80 7d bc d3 ea b1 3b 61 43 7c bb
       -0.056954484 -0.015472584 0.0054296046 -0.003849231
000220 be 51 c3 3d 37 4e 9e 3d e4 a0 cf bc d6 9f 83 3d
       0.095370755 0.07729762 -0.025345273 0.06426971
000230 02 ec a0 3d 55 20 a9 3d 55 c2 10 3d ae 18 18 bd
       0.07857515 0.0825812 0.03534158 -0.03713291
000240 ca a1 c8 bd 26 b9 10 3e cb 4f 08 be af 18 c8 bd
       -0.09796484 0.14133129 -0.13311689 -0.09770333
000250 b8 b5 04 bc b5 0a 45 3c 18 f2 91 bc 08 57 4a bd
       -0.008099966 0.012026479 -0.017815635 -0.049399406
000260 14 9a 37 bd e7 95 8b bc 00 bd 37 3d bb eb ae bc
       -0.044824675 -0.017039252 0.04485798 -0.02135264
000270 d7 66 0c be 80 45 cb 3d 17 f6 e2 bd b8 d8 35 3d
       -0.13711105 0.099253654 -0.11082094 0.044396132
000280 a8 ef e0 bd 88 33 b3 3d 58 6d e8 3a c7 fa 7f 3c
       -0.10983211 0.08750063 0.0017732782 0.015623755
000290 97 aa a5 3c 22 08 21 bd 8f 3e 59 bd 75 f0 be 3d
       0.020222945 -0.039314397 -0.053038176 0.09323207
0002a0 1d 1b e0 3d 29 a7 75 bc 0a ff a6 3d 2f a7 cd 3d
       0.109426714 -0.014993467 0.081541136 0.10041653
0002b0 c4 24 28 bd c2 46 a0 3d a7 51 56 3d 02 59 fb bd
       -0.041050687 0.07825996 0.052323963 -0.12272836
0002c0 77 7c b3 bd 2b 52 a6 bd 25 57 77 bd e5 ae e3 3d
       -0.08763974 -0.08121141 -0.060385842 0.11117343
0002d0 58 fb ad 3d 6a cf 87 3c b0 df b1 bb c8 98 26 bd
       0.08495206 0.016578395 -0.005428277 -0.040673047
0002e0 c8 b1 f0 3d dd 80 d1 3d ea dd b5 3d 02 f0 a3 bc
       0.11752659 0.10229657 0.088802174 -0.020011906
0002f0 b7 62 a9 3d f2 60 97 3d 1f 7a 23 3d 19 5c a2 3d
       0.082707815 0.07391538 0.039911386 0.079277225
000300 e9 97 d0 3d 95 82 a8 bb 4a b4 58 3d 28 5e b2 3d
       0.101852246 -0.0051425197 0.052906312 0.08709365
000310 bc f7 2b bd 5c 3a d6 3c 3d 43 b0 bc 47 be d7 3d
       -0.041984305 0.026150875 -0.021516437 0.105343394
000320 6b cd eb bc c6 f8 b9 bd ba 83 f3 3d c3 d6 a5 bc
       -0.028784474 -0.09080653 0.11890359 -0.020244008
000330 f8 83 2f 39 a8 c0 6d 3d c0 45 22 3e 7f f9 a9 bc
       0.00016738463 0.05804506 0.1584692 -0.020748852
000340 cc 7a da 3c 08 14 1d 3d dc 31 11 3e 0b 97 95 3d
       0.026669882 0.03834918 0.14179176 0.073042
000350 69 0c de bd b2 9a c0 3d 72 13 0f 3e 90 40 64 bc
       -0.10842211 0.09404506 0.13972262 -0.0139314085
000360 5e 0e 16 3e 58 5f 06 3e a8 d0 b7 bd 62 47 9a 3c
       0.14653918 0.13122308 -0.08975345 0.018832866
000370 2a 74 00 3e 2c 3e e6 3d 33 f7 91 3d 49 f7 2d bd
       0.12544313 0.11242327 0.07127228 -0.042472158
000380 f2 5c f6 3d 66 d7 a2 3c 94 01 df 3d 13 53 36 bd
       0.12029447 0.0198781 0.10888973 -0.04451282
000390 16 8e bc 3d f3 a2 b1 bd 0b 70 21 3e 19 a7 7a 3d
       0.09206788 -0.08673658 0.15765397 0.061194513
0003a0 a2 de 0a 3e 74 84 db 3d 39 84 05 bd 78 1d 49 bd
       0.1356149 0.10718623 -0.0325968 -0.04910037
0003b0 f7 d4 21 3c 6e f3 53 3d 80 11 37 bd c2 5c 6f 3d
       0.009877435 0.051745825 -0.044694424 0.05843807
0003c0 95 f4 cd 3d 85 84 f7 3d fa 7c 89 bd 80 f5 c8 3c
       0.10056416 0.12085823 -0.067132905 0.024531126
0003d0 87 28 0a bd d0 d4 df 3d c6 17 c5 bd 42 69 59 3d
       -0.033730056 0.10929263 -0.09623675 0.053078897
0003e0 e7 f5 1d 3e f3 f5 01 3d d7 d1 9a 3b cf 6f 02 bd
       0.15425836 0.031728696 0.004724722 -0.03184491
0003f0 15 0f 13 3c f8 f6 43 3d 01 a7 07 3e 04 f2 80 3c
       0.008975764 0.04784295 0.132473 0.015740402

lstm.weight_ih_l1 f4 [256, 64]
000000 ee c3 71 bd bc 2c 87 3d 0e 12 7a bd ad fe 04 3d
       -0.059024744 0.06600329 -0.061052375 0.03246944
000010 57 78 33 3d 64 9b 73 3d cd 85 24 bd c4 37 f8 3c
       0.043815937 0.059474364 -0.040166665 0.030300029
000020 3f 35 d7 bd ba ec f2 bc 7e d9 5a 3d d9 ca b7 bc
       -0.10508203 -0.029653896 0.053430073 -0.022435592
000030 db d9 38 3d 2f f1 e7 bc 97 bb c6 bd 9f 26 07 3e
       0.04512964 -0.028313247 -0.09703749 0.13198327
000040 ac 87 f5 bb 0e a3 50 3d ce d2 e1 3c 25 8e cc 3d
       -0.00749298 0.05093675 0.02756634 0.099880494
000050 21 27 a2 bb 6d ce dc 3c 09 76 54 3c b2 0a 4c bd
       -0.004948512 0.0269539 0.012967595 -0.049814887
000060 fa b8 fc 3d 62 58 41 bd d6 11 2a 3d 40 9e 91 bd
       0.12339969 -0.04720343 0.041520916 -0.07110262
000070 42 b2 bf 3d 6f bc f7 3d 11 9a 8f 3b 5f 7e 63 3c
       0.09360172 0.12096488 0.00438238 0.01388511
000080 9b e1 72 bc 02 f2 83 bd c0 21 43 bd 58 8b fb bd
       -0.014824296 -0.06442644 -0.04763961 -0.12282437
000090 cc 9c 64 3d 63 78 47 bd f4 41 fd 3d 18 99 96 bd
       0.055813596 -0.048698794 0.12366095 -0.07353419
0000a0 84 b0 13 be 0f 4e 9f bd fe 2d ba bd 46 99 3f 3d
       -0.14422804 -0.0777856 -0.090908036 0.046777032
0000b0 a0 16 bf 3c 60 fd c3 bd ed 32 4c bd 89 6a 61 3d
       0.023326218 -0.09569812 -0.049853254 0.05503324
0000c0 b1 57 f6 3c e9 23 a7 3c 0e 81 b6 3d d7 c2 fd bc
       0.030071111 0.020402865 0.08911334 -0.030976696
0000d0 c5 a3 11 bd ad 26 ae bc 67 b9 ed 3d 5e f3 94 3d
       -0.035556573 -0.021258676 0.11607628 0.07272981
0000e0 90 b6 18 3e e7 6c f7 bd fd f2 1a bc 56 05 20 3d
       0.14913392 -0.12081318 -0.009457347 0.03906759
0000f0 5a 48 7b 3d ed 14 15 3e f5 dd c5 bd aa 9b 3e bd
       0.061348297 0.14558764 -0.096614756 -0.04653517
000100 71 4c 88 bc a5 17 8f 3d e5 af b1 bd a1 16 09 3e
       -0.016638013 0.06986932 -0.08676127 0.13387538
000110 e1 d1 9e 3c 16 4b 68 3b a2 cc 3c 3d 37 e9 79 3c
       0.019387187 0.0035445145 0.04609359 0.015253357
000120 53 58 c2 bd a2 10 c0 bd 0a 50 f4 bd 3d 00 1b 3b
       -0.09489503 -0.093781725 -0.11929329 0.0023651265
000130 e9 99 03 be 30 f1 63 3d 0c 41 97 3d e1 aa 79 ba
       -0.12851681 0.055649936 0.073854536 -0.0009524059
000140 2c 6c 43 bc 71 d1 49 3d 80 32 c0 3d 32 00 bd 3d
       -0.011927646 0.049272005 0.09384632 0.09228553
000150 d3 2d 76 3d 8c b8 bc bd 15 f6 41 bd 82 44 c7 3d
       0.060102295 -0.09214887 -0.047353823 0.09729864
000160 ab bd fe 3d 98 74 a8 3d 79 b8 40 3c 37 4a 8c 3d
       0.1243852 0.082253635 0.011762732 0.06850093
000170 a5 f0 ab bd 04 54 43 3b 33 5c 57 bb a6 81 89 3d
       -0.08395509 0.0029804716 -0.0032861352 0.067141816
000180 8e 9b 16 bd cb 82 09 3b 65 5b 76 bb a8 6f 09 be
       -0.036769442 0.00209825 -0.0037591096 -0.134215
000190 91 b5 33 bd e0 a3 5b bd 82 21 4b 3c 9b 54 7f bc
       -0.043874327 -0.05362308 0.012398126 -0.015584136
0001a0 37 22 73 bd fc 48 eb bb 89 43 de bd b5 fc 8c 3d
       -0.0593588 -0.0071803313 -0.10852725 0.068841375
0001b0 f9 1f 37 3d 87 ec 56 bd 3a e9 66 bd 27 05 a2 bd
       0.044708226 -0.052471664 -0.056374766 -0.07911139
0001c0 f6 72 06 bd 99 6a 64 bd ad 5d e0 bc 8a 94 62 bc
       -0.03282448 -0.055765722 -0.027388418 -0.01382936
0001d0 88 b6 79 bb 50 68 8b 3d 0a 8b aa bd b5 14 f5 bb
       -0.0038103182 0.068070054 -0.08327301 -0.007479275
0001e0 ef b7 97 3c cd 11 a5 bd 06 dd 7d bb 08 55 d9 bb
       0.018520324 -0.08060036 -0.0038736477 -0.006632451
0001f0 24 85 fa 3d 56 85 ca 3b 35 12 fb 3d f8 8d 07 3e
       0.12232426 0.0061804457 0.12259332 0.1323775
000200 4f ca d6 3b 3a df a7 3d ab aa ad 3d 14 d5 8e bd
       0.006554879 0.08196874 0.08479818 -0.06974235
000210 91 dc 31 3d f8 bb 08 bd 88 bd 4e 3b 3b f2 f1 3d
       0.04342324 -0.033382386 0.0031546075 0.1181378
000220 be e6 95 3b 11 8c eb bd 40 33 a1 bd fc 15 f8 bd
       0.0045746258 -0.11501325 -0.07871103 -0.12113568
000230 87 98 67 bd 73 f3 da bd f5 94 42 3d cd cf 04 3e
       -0.056541946 -0.106909655 0.047505338 0.12969895
000240 8a 66 a1 3d 89 9b 81 3c cf 5a b6 3d 1a 74 ea bd
       0.07880886 0.015821235 0.08904039 -0.11447926
000250 ae 04 03 bc a2 d7 08 3d 50 ae 42 3d 40 c0 0a be
       -0.007996721 0.03340877 0.04752952 -0.135499
000260 02 db 94 bc b8 0b ea ba 10 50 c1 bb 9c da 64 bb
       -0.018170837 -0.0017856276 -0.005899437 -0.003492034
000270 cf 6b a3 bd de 59 cd 3d 13 55 a6 3d c8 db 67 bd
       -0.07979547 0.100269064 0.08121695 -0.056606084
000280 21 90 0f 3d 7f a2 9a 3d 81 c9 5e bd 47 5e 0f be
       0.03504956 0.07550525 -0.054391388 -0.14000808
000290 8e 7a b3 3d 50 29 14 3e 54 99 d9 3d 13 74 c8 3d
       0.0876361 0.14468884 0.10624948 0.097877644
0002a0 55 e5 1d bd 65 b0 b4 bd 89 99 92 3d f3 69 0a 3d
       -0.038548786 -0.08822707 0.07158191 0.033792447
0002b0 54 bb c0 3d af 16 27 bd 20 01 ed 3d 20 8f b1 3d
       0.0941073 -0.040793117 0.1157248 0.08669877
0002c0 fe 16 fb bc 4c 4d ff 3d 47 fc 2e 3d 4b a5 0e 3e
       -0.030650612 0.12465915 0.04272106 0.13930242
0002d0 bf 18 df bb 05 65 52 3d af 3c 37 3d 31 4c bf bc
       -0.00680837 0.05136587 0.044735607 -0.02335176
0002e0 52 73 60 3c 30 46 91 bd b2 fe 90 bd b5 8e 53 3d
       0.0136993695 -0.07093465 -0.07079829 0.051649768
0002f0 e8 62 24 3d 6b f4 73 bd 7a 0f af 3d 2d 5d 95 3c
       0.040133387 -0.059559267 0.08547874 0.018232906
000300 ca 71 e2 bd 06 82 80 bd 21 b8 fe 3d 34 31 c8 bd
       -0.1105686 -0.062748 0.124374636 -0.0977501
000310 24 bc 91 bd c1 43 1d 3d a5 6b aa bd 02 1d 8f bd
       -0.07115963 0.038394693 -0.08321313 -0.06987955
000320 bf cc d2 3b 52 3f a5 bd 6a 09 04 be 67 fc d2 bc
       0.006433099 -0.08068718 -0.12894216 -0.02575512
000330 19 a4 4a bd 5d 91 c9 bc dd f2 12 3d 7f e2 bf bd
       -0.049472902 -0.024605447 0.035876144 -0.093693726
000340 f9 6b 05 3e dd e8 97 3b 56 4f d5 bd 8f 54 74 bd
       0.1302947 0.0046359138 -0.10415523 -0.059650954
000350 34 f4 e5 ba ec b3 07 3e eb 30 ad 3d 8a 93 05 be
       -0.0017544092 0.13252228 0.08456596 -0.13044563
000360 76 27 af bd e6 6f 77 3b ba 7d 3e 3d 83 16 e2 3c
       -0.085524485 0.0037755906 0.04650662 0.027598625
000370 92 e2 9d bd 92 3d 66 bd f8 2f 8e bd 37 11 7e 3d
       -0.077092305 -0.05621106 -0.06942743 0.062028136
000380 68 cd bd bd ba 15 83 3b ae 52 cc 3d 07 e1 0b be
       -0.09267694 0.0040003927 0.099767074 -0.1366006
000390 4a c4 d1 3c 3d 54 ba bd 4a 31 86 bc 54 64 be 3d
       0.025606293 -0.090980984 -0.016380925 0.0929648
0003a0 5e 07 bc bd f3 5e 94 3d 4f 57 09 3e 9e 89 b2 3d
       -0.09181093 0.072446726 0.13412212 0.08717655
0003b0 dd 8a 2e bd e4 57 ef bc 5a 4c 6f bd 13 ec a5 ba
       -0.0426129 -0.029216714 -0.058422424 -0.0012658857
0003c0 49 64 8b 3d c1 56 c6 bd fa 3f 23 bd 5a 29 2c 3d
       0.06806237 -0.09684516 -0.039855935 0.042031623
0003d0 fa 1a 09 3b d3 c2 0b 3d 72 1a dd 3d aa 58 55 bd
       0.002092062 0.034121346 0.1079606 -0.05208651
0003e0 75 e3 25 bd 4e 28 dd bd 2d 26 07 3e 68 72 3e 3d
       -0.040500123 -0.10798703 0.13198157 0.046495825
0003f0 f1 6d fb bb ac a8 12 3e 36 fe b3 3c 50 77 99 bc
       -0.007673018 0.14322156 0.021971803 -0.01873365

lstm.weight_hh_l1 f4 [256, 64]
000000 e5 6f 17 bd a0 66 84 bc 1b 9b c8 b9 94 35 8a 3d
       -0.036971945 -0.016162217 -0.00038262535 0.067485005
000010 83 75 ec 3d 7b 21 78 3d ae 23 92 3d 7c 08 a6 3d
       0.11545851 0.060578804 0.071357116 0.08107087
000020 ea c8 67 3c 00 52 7f 3d 25 58 0f be bc 4f b4 bd
       0.014147023 0.06233406 -0.13998468 -0.088042706
000030 b1 0d 0d bd 26 2a 43 3c d5 a1 9d bd 73 5d b4 bd
       -0.034436885 0.011911904 -0.07696883 -0.088068865
000040 ab 9b 58 3d 5a 3a 82 bd 87 a9 7a bd 60 d4 5d bd
       0.05288283 -0.06358786 -0.06119683 -0.054157615
000050 35 f3 72 3d f9 1a ae bd 88 f5 12 be 17 5c 17 3d
       0.05931397 -0.085012384 -0.14351475 0.036953058
000060 64 1c 37 ba c3 7e 9a 3b 3f 2e e4 3d 6c b3 3f bd
       -0.00069851265 0.004714818 0.11141633 -0.04680197
000070 27 0a 4c 3d 36 1d ce 3d 8d d6 39 3d 58 6f cf 3c
       0.04981437 0.10064165 0.045370627 0.025321648
000080 34 e2 81 bd b7 e2 38 bd 41 21 db bc 81 dc 1e 3d
       -0.06341973 -0.045138087 -0.026749255 0.038784508
000090 c4 7f bd 3d 45 d6 a1 bd 94 0b de 3d 65 00 91 3d
       0.09252885 -0.07902197 0.10842052 0.070801534
0000a0 e2 00 94 bd a2 71 fe bd 43 4b a4 3c 01 2e 1b 3d
       -0.07226731 -0.124240175 0.020055419 0.03788567
0000b0 79 7e a2 3c 5d 50 bc 3c 35 99 5a 3c 64 ea 51 3d
       0.019835697 0.022987539 0.013342191 0.051248923
0000c0 28 18 2f bd 07 69 bf 3d a0 71 37 bd 6b 95 ad 3d
       -0.042747647 0.09346204 -0.044786096 0.08475765
0000d0 8f 6b af bd e6 a8 9d bd 33 f2 04 3e be 69 83 bc
       -0.08565437 -0.076982304 0.12983017 -0.016041633
0000e0 1d 4d a6 bc 73 66 f2 3d 33 18 b6 bc 6d 1d 98 3b
       -0.020300442 0.11835947 -0.022228336 0.0046421797
0000f0 81 16 94 bd 6c 13 42 3d 87 a5 b9 bd de ce eb 3d
       -0.07230855 0.047381803 -0.09064775 0.11514066
000100 f4 4e 06 bd 5d 2b 1c be ff d4 4e bc 05 27 1a bd
       -0.03279014 -0.15250917 -0.012624024 -0.03763487
000110 c0 11 e5 3d c0 c5 6a 3d 87 4f f3 bd 58 49 04 bd
       0.11185026 0.057317495 -0.11880403 -0.03229651
000120 d0 c9 89 3d 14 9c cc 3c b8 90 ea 3b 53 0a db bd
       0.06727946 0.024976768 0.007158365 -0.106953286
000130 5e 43 36 3d c6 ab fe bb 20 1a d6 3d 33 7f d6 3d
       0.04449784 -0.007771942 0.10454202 0.1047348
000140 a0 79 5f bd d2 66 b5 ba 3c be 1a 3d 65 7b f3 3d
       -0.05455935 -0.0013839847 0.037779078 0.1188877
000150 e9 fe e5 bd e7 3e 84 3a 77 52 bd 3d cd 29 e6 3d
       -0.11230261 0.0010089547 0.092442445 0.112384416
000160 10 ee ef bd 72 c2 01 3e b3 0f b0 3d 15 68 03 be
       -0.11715329 0.12671831 0.085967444 -0.12832673
000170 e3 76 fd 3a d3 b0 3e 3c 61 2f b6 3d b1 8a 4f 3a
       0.0019337799 0.011638838 0.088957556 0.000791709
000180 7d 0a a0 bc bb 39 72 3d 22 93 ee 3d e9 91 b3 3d
       -0.019536251 0.059137087 0.11649157 0.087680645
000190 57 93 4d 3d f5 41 32 bd 1c 40 0a be a0 08 b2 3d
       0.050189342 -0.043519933 -0.13501018 0.08693051
0001a0 a8 16 c0 bc 55 3f 9f bd cb 5f 2f bc 95 83 32 bd
       -0.023448303 -0.077757515 -0.010703991 -0.043582518
0001b0 c7 48 b5 3d 43 fe 1b bd 3e 80 d7 3d 7c f7 ce 3c
       0.08851772 -0.03808428 0.10522507 0.025264494
0001c0 fe 28 9f 3c cb ce 6a 3c 28 a0 d1 3c ec 70 83 3d
       0.019428726 0.01433153 0.025589064 0.064180225
0001d0 51 48 a1 3c b8 b1 63 3d a0 60 66 3d e6 47 7b 3b
       0.019687803 0.055589408 0.056244493 0.0038342415
0001e0 e8 aa ef 3c e3 57 80 bc 54 91 b2 bd af 8d 27 bb
       0.0292563 -0.015666908 -0.087191254 -0.0025566628
0001f0 dc 92 b3 bc c4 01 93 bc 4e c9 b4 3d f6 eb b3 3d
       -0.021920614 -0.017945178 0.08827458 0.0878524
000200 fb 32 e2 bd 8d 07 85 3d 1a 96 ed 3d 85 21 38 bd
       -0.1104488 0.06495581 0.11600895 -0.04495384
000210 09 73 0f ba c8 ce d9 bc fe 6b af bc df 9e bb 3d
       -0.00054721587 -0.026587859 -0.0214138 0.09161162
000220 3e 3d 0c 3d 8e 27 72 bd bb b8 ae 3d 0b 79 c4 bc
       0.034238093 -0.059119754 0.08531328 -0.023983499
000230 8f cc 1d 3c 95 a7 bf 3c bd 4b 14 3d d8 88 b0 bd
       0.00963129 0.023395339 0.036205042 -0.08619851
000240 ae 21 a8 39 29 3b b7 bc ce 2e 01 3e c7 46 bb bd
       0.0003206855 -0.022367077 0.12615511 -0.09144359
000250 71 e7 61 3b 95 35 a4 3c 03 7f 84 3d 72 55 ce bd
       0.0034470225 0.020045081 0.06469538 -0.10074891
000260 eb df 7c 3b cf 56 b5 bc c9 a9 ca 3d ed bc af bd
       0.0038585614 -0.02213612 0.09895665 -0.085809566
000270 09 19 58 bd 26 8f b3 3d 7a d5 90 bd 9b b2 c1 3d
       -0.05275825 0.08767538 -0.070719674 0.094578944
000280 1b f2 a0 3d 9a 49 1f 3c 27 4e e4 3d c9 66 4d bd
       0.07858678 0.009722138 0.11147719 -0.05014685
000290 b1 f3 ff 3d 4f 21 1d 3c 7e fb 6a 3c 3d 6c 95 bd
       0.12497652 0.009590461 0.014342187 -0.072960354
0002a0 69 b6 ec bd b7 d9 a8 bb 20 22 02 3e 1b 14 86 3c
       -0.115582295 -0.0051529068 0.1270833 0.016367009
0002b0 57 62 92 bd 82 ff 37 bd 89 ab 44 3d 39 da 15 3e
       -0.07147663 -0.044921406 0.04801515 0.14634027
0002c0 a6 46 e3 bc 35 c6 bd bd 97 e9 0b 3d 4e 89 c2 bd
       -0.027743649 -0.092663206 0.034158316 -0.09498845
0002d0 9b c1 b9 bd 71 cb f1 3c ec 53 d1 bc ec df a3 3d
       -0.090701304 0.029515954 -0.025552712 0.08001694
0002e0 02 4d fa bd 1d 6e e1 ba 33 1f bc 3d 52 1a 63 3c
       -0.12221719 -0.0017198954 0.09185638 0.013861256
0002f0 58 16 c2 3c d3 21 2b 3c 3e 91 04 be da 3e b9 3d
       0.023692295 0.010445076 -0.1294603 0.09045191
000300 5b 97 f4 bd 5e d5 89 bd 78 d1 cf 3c 16 86 a8 3d
       -0.11942931 -0.0673015 0.025368437 0.082287
000310 eb 66 f2 3c e4 f3 83 bc 88 97 86 3c 20 2d 81 3d
       0.02959009 -0.016107507 0.016429678 0.06307435
000320 66 c6 a3 bd b3 eb 1a 3d 64 50 0c be 12 59 39 bd
       -0.07996826 0.037822437 -0.13702542 -0.04525096
000330 a8 57 70 bc 44 1f 79 bd 90 21 f3 bd 1c b9 d7 bc
       -0.014669336 -0.060820833 -0.11871636 -0.026333384
000340 6e 3f 87 3a 5a 64 c6 3c 75 c4 88 bc 82 d0 c1 3d
       0.0010318586 0.024217773 -0.01669524 0.09463598
000350 40 0f b8 3d e3 70 32 3d 32 c8 31 3d 56 5c 5e bd
       0.08987284 0.04356469 0.04340381 -0.054287277
000360 89 01 00 bd e5 ab dd bc ac c6 99 bc 5f 6a 87 3d
       -0.031251464 -0.027059505 -0.018771492 0.066120856
000370 0a d2 a3 3d 0a 42 29 bd 67 91 8f bb 76 31 f3 bd
       0.07999046 -0.041322745 -0.004381347 -0.11874668
000380 2b 01 96 3c cf 3a 09 3e e6 2f 92 bc bf 61 24 bd
       0.018311104 0.1340134 -0.017845105 -0.04013228
000390 2f 0c 66 bc 03 b3 12 be 12 fe 9b 3d 35 df b9 bd
       -0.014040991 -0.143261 0.076168194 -0.090757765
0003a0 41 14 d5 3d f9 11 7b 3d 95 b7 63 3c 34 46 e4 bd
       0.10404254 0.061296437 0.01389875 -0.11146203
0003b0 0f db b2 3d 5e 27 ae bd 84 7e 32 3c 1a 5d 5b ba
       0.08733188 -0.085036024 0.0108944215 -0.000836806
0003c0 7e 91 fc bb d1 9c 11 3d d7 24 dc 3c 96 06 b7 3d
       -0.0077077737 0.035549942 0.026873035 0.08936803
0003d0 ea 00 2a bb 03 1c 44 3d 2e 83 02 3e b3 43 a2 bd
       -0.0025940486 0.047878277 0.12745354 -0.07923069
0003e0 c4 47 0b be 4b 54 a0 3d d9 d8 c5 bd 37 8c d1 bd
       -0.13601595 0.078285776 -0.09660501 -0.10231822
0003f0 56 6c cf bc 07 3a 1e 3e 1b d0 e8 3c a3 6b cc 3d
       -0.025320213 0.15451823 0.028419545 0.099814676

lstm.bias_ih_l1 f4 [256]
000000 a7 c4 ae bb 8f d7 cd 3d 34 c7 ca 3d c6 6f b2 3d
       -0.0053335014 0.1005088 0.09901276 0.08712725
000010 a8 23 9f bd b5 a3 35 3d e3 cb be bb ff 19 ea 3c
       -0.07770473 0.044345576 -0.005822645 0.028576849
000020 8f b0 95 3d 38 b8 09 3e 1a 74 ae bc 29 ba 93 bd
       0.073090665 0.1344918 -0.021295596 -0.072132416
000030 da b1 ac bd 76 35 1c bd 2e 16 99 bd c6 57 57 3d
       -0.0843236 -0.03813692 -0.074749336 0.05257394
000040 c2 17 31 bd e0 10 e1 3d e2 d9 f1 bc 53 b7 8e 3c
       -0.043235548 0.10989547 -0.02952284 0.0174214
000050 c9 69 a3 bc 24 f4 bf bc 3d 28 00 3e db d5 3a 3c
       -0.019947903 -0.023431845 0.1251535 0.011403526
000060 9f 41 c3 3d 44 a5 d6 bc 52 f1 ac 3c dd cc f8 3d
       0.095340006 -0.026201852 0.021111164 0.121484496
000070 87 ff 89 bd 4e 52 b2 3d a3 cd d0 bd e8 b3 37 3b
       -0.06738191 0.087071046 -0.10195472 0.0028030816
000080 b5 d9 98 3d 07 49 0c 3e a2 a7 74 bd 37 c5 cf bd
       0.07463399 0.13699733 -0.05973018 -0.101450376
000090 e0 11 03 3e 3d 9e dc 3d 5e e4 f3 3d 14 4c ae 3c
       0.12799788 0.10772369 0.11908792 0.021276511
0000a0 50 43 69 3d 66 9d 62 bd e4 f1 be bd 79 b1 01 3e
       0.05694896 -0.055325888 -0.09323481 0.12665357
0000b0 d2 ad 84 bc b5 c2 95 3d de 9d 99 bd 65 c5 20 bd
       -0.016196165 0.07312528 -0.07500814 -0.03925075
0000c0 6a 36 af bd 10 8c 1b 3e f8 8e de 3d 70 9f 95 bd
       -0.085553005 0.15190148 0.10867113 -0.07305801
0000d0 ca b1 c7 3d 63 06 a0 3d 43 0c 7b bd 75 2c e0 bc
       0.097507074 0.07813718 -0.06129099 -0.027364949
0000e0 a6 2f ba bd 48 d6 80 3d e6 13 94 3d 13 95 11 3e
       -0.090911195 0.06290871 0.07230358 0.14217024
0000f0 da fc cb 3d 34 79 84 3c b0 fb d7 3d 94 86 73 3d
       0.09960337 0.016171075 0.105460525 0.059454516
000100 a8 d1 c0 bd cd 0a 2c bd 50 59 9b 3c 77 cc 34 3c
       -0.09414989 -0.042002488 0.018963486 0.011035076
000110 f5 2d 97 bd b2 83 8b bd 79 80 08 3e b9 31 b4 bd
       -0.073818125 -0.06812228 0.13330258 -0.08798546
000120 42 40 f5 3c a4 b0 9a bd bb b6 9f 3d aa 4d 51 3d
       0.029937867 -0.07553223 0.07798525 0.051099457
000130 0c de 20 bd ce bd 12 3d 87 94 cf bd 0a 15 ce bc
       -0.03927426 0.035825543 -0.10135751 -0.025156517
000140 8d d3 a2 3d c1 e6 63 bd 3b 62 17 bd 8a 55 87 bd
       0.07950506 -0.055639986 -0.036958914 -0.06608112
000150 9d b6 88 bc e2 d7 f9 3d 94 23 c5 bd f1 c5 fd bd
       -0.01668864 0.121993795 -0.096259266 -0.1239127
000160 f1 47 b7 3d 9e 7b 59 bc 06 50 10 3e cf 4a 2a 3d
       0.089492686 -0.013274102 0.14093027 0.04157525
000170 f1 9b 45 3d 53 96 f5 bc 31 7c 7b 3d ac f8 cd bc
       0.04824442 -0.029978907 0.061397735 -0.02514299
000180 d7 fd 3a bd 31 1b ab bd c8 fb d0 3b 69 c7 d9 3d
       -0.045652237 -0.08354796 0.006377671 0.106337376
000190 b2 cf db bc c3 5d 9b bd 1b a0 b9 bd 3e 7c 1d 3d
       -0.026832435 -0.07586243 -0.09063741 0.038448565
0001a0 81 fb 91 bd d8 a0 fc bc e4 a6 11 3e 16 9d 91 bb
       -0.07128049 -0.030838415 0.1422382 -0.004443775
0001b0 6b b9 b2 bc 62 c8 2b 3d ce c3 69 3d 1a 8d 52 3d
       -0.02181693 0.041939147 0.0570715 0.051404096
0001c0 6b 8e ba bd 3d 9f 70 bd 85 b6 ec 3c cc cc b7 3d
       -0.09109195 -0.05874561 0.028895626 0.08974609
0001d0 8a 44 c7 3d 12 8d f3 3d eb 9a 53 bd 94 d3 5f bd
       0.0972987 0.118921414 -0.051661413 -0.054645136
0001e0 70 3d 63 bd e4 54 3a bd 2a a1 15 3c 5c 8e 18 3d
       -0.055478513 -0.045491114 0.009132663 0.03724514
0001f0 b0 d0 a0 3d 08 26 a5 3d b4 31 92 bd af 0a cd bd
       0.07852304 0.080638945 -0.07138386 -0.10011803
000200 dd 0b c9 bd 8a 89 a5 bd e5 3f 50 3d c5 3e 65 3d
       -0.09816716 -0.08082874 0.050842185 0.055968065
000210 1f 60 a9 3d 6e 5f af 3d c9 87 4e bd 0e a3 2f 3c
       0.08270287 0.08563124 -0.050422464 0.010720028
000220 7d 09 85 bd 33 5a 90 bd 28 02 36 bc 11 6f 6e bd
       -0.0649595 -0.07048454 -0.0111089125 -0.05821139
000230 5f 00 3b 3c 1f 6c 06 3c 5a 98 05 3d f3 1c ca 3d
       0.011413663 0.008204489 0.032615997 0.09868803
000240 f9 57 9f 3d 6c bf b9 3d ed ab cb 3c 18 66 8f 3d
       0.07780451 0.09069714 0.024862254 0.07001895
000250 3c 0d e9 bd 21 61 86 bd 3e c9 d6 3c 5c 7a 5c 3b
       -0.113794774 -0.065614946 0.026219007 0.0033642268
000260 64 76 0b 3d dc 5a 8b 3d 24 75 ed ba 43 3d ac 3d
       0.034048453 0.068044394 -0.0018116576 0.08410122
000270 5c fe 14 3d 2d 8a 96 3d 86 8f 56 3d fd 33 47 3d
       0.03637539 0.07350574 0.05238297 0.048633564
000280 d6 16 96 3d f5 af 64 3c b1 67 e0 3d ee ed 64 bd
       0.07328574 0.013957967 0.109572776 -0.05589097
000290 7a a6 04 bc cd 30 f9 bd bf 8b a3 bc 5e 8b 53 bb
       -0.008096332 -0.12167511 -0.019964097 -0.0032279114
0002a0 a8 07 51 3d b4 71 27 3d 79 f0 b6 3d 71 45 fd bc
       0.051032692 0.04087992 0.08932585 -0.030916901
0002b0 36 8f 80 bd 0e 91 89 3d 95 7b 9d bc 4c e8 b0 bd
       -0.06277315 0.0671712 -0.019223968 -0.08638057
0002c0 0a a2 a2 bb 5f 66 dc 3d e4 4f ad 3d 27 75 15 bd
       -0.004963164 0.10761713 0.084625036 -0.03648868
0002d0 bb 64 08 3e a0 3e d1 bd 10 08 83 3d 80 07 17 3e
       0.13319676 -0.10217023 0.06398022 0.14748955
0002e0 e9 e4 46 3d a5 23 93 bc b1 0d 27 bd ca 4b 03 3e
       0.04855815 -0.017961333 -0.04078454 0.1282188
0002f0 f4 b7 8f 3c ec 06 08 3e da be 48 3d 14 3d 88 bd
       0.01754377 0.1328389 0.049010135 -0.06652275
000300 f3 a0 27 3e 32 2c c5 3c 5c ff 20 3e a3 43 d0 bc
       0.16369991 0.024068926 0.15722412 -0.025422877
000310 e5 0e 82 3c 9a c9 df 3d 66 18 c7 3d 3d 06 12 bc
       0.015876243 0.10927124 0.097214505 -0.00891262
000320 f9 d0 ab bd 59 e0 cd 3d fc ca 4a bd ad be aa bd
       -0.08389468 0.100525565 -0.049509987 -0.0833715
000330 75 bd 3d bd d9 54 03 bb d2 b0 7d 3d b1 c0 a2 3d
       -0.04632326 -0.0020039587 0.061936207 0.07946909
000340 f3 09 03 bd c6 03 74 bd ef 7a a8 3d b3 30 f8 3d
       -0.03199191 -0.05957391 0.08226573 0.12118664
000350 51 16 5d bd 61 10 1e bd 64 90 87 3d 03 2f 25 3d
       -0.05397636 -0.03858984 0.06619337 0.040328037
000360 e3 a7 ca bd f3 e5 12 3e 83 15 f3 3d ed 71 84 3c
       -0.09895303 0.14345531 0.118693374 0.016167605
000370 68 8b 00 3e 3a 7a 5f 3d 83 6e f9 bc fa f7 90 3c
       0.1255318 0.054559924 -0.030448204 0.01769637
000380 3e 66 0a bc 75 9c 23 bd b3 67 77 3d c1 21 3c bd
       -0.008447228 -0.03994413 0.06040163 -0.045930628
000390 23 8d ca 3d 2e 9b 13 bd 46 73 6a 3d d6 97 98 3d
       0.09890201 -0.036036663 0.05723884 0.074508354
0003a0 f1 8a bb bd 88 ab 00 3e c3 d7 dc bb 4c 5a bf 3d
       -0.0915736 0.12565434 -0.006739588 0.09343395
0003b0 8c 9d fb 3d 73 bc f2 bd 09 c9 27 3d 1a b4 9b 3d
       0.12285909 -0.1185235 0.040963206 0.07602711
0003c0 d3 81 f0 3d dc 62 43 3d f3 73 35 3d 93 9c 3d 3d
       0.11743512 0.0477017 0.04430003 0.0462919
0003d0 18 e9 95 bd 04 44 23 3e 51 13 ea 3d 55 33 04 3e
       -0.0731985 0.15943915 0.114294656 0.12910207
0003e0 20 38 45 bc 42 24 c5 3d f3 36 53 bd 7f 8c 88 3d
       -0.012037307 0.09626056 -0.051566076 0.066674225
0003f0 bd 24 f9 3d 53 92 bb 3d e2 2b 54 3d d2 96 7d bd
       0.121652104 0.091587685 0.051799662 -0.06191141
