predictor_model.pth (torch, 237480 bytes, 9 tensors)

lstm.weight_ih_l0 f4 [256, 32]
0	0x3ddf36c8	0.108991206
1	0x3e28d935	0.16489108
2	0x3d71004b	0.05883817
3	0x3dbb5f50	0.09149039
4	0x3cc3c235	0.023896316
5	0xbd8f63c4	-0.07001451
6	0xbdac583d	-0.084152676
7	0xbdb57dbe	-0.08861874
8	0xbd91b2e4	-0.07114199
9	0x3c08fa30	0.008360431
10	0xbd8ee25e	-0.0697677
11	0xbdcf8df4	-0.10134497
12	0x3dbf689f	0.09346127
13	0xbdb59112	-0.088655606
14	0x3d92f284	0.071751624
15	0xbd824dae	-0.063624725
16	0xbe0e67fa	-0.13906851
17	0x3cba43c1	0.022737386
18	0xbcd97d35	-0.026548961
19	0x3db9e9a3	0.09077766
20	0xbc90c2cf	-0.017671017
21	0x3d00233e	0.03128361
22	0xbc91cfc0	-0.017799258
23	0x3b237356	0.0024940572
24	0x3c2de113	0.010612744
25	0x3b5cd61e	0.003369696
26	0xbc23918f	-0.009983434
27	0x3c8cf4f1	0.01720664
28	0xbce1a8bb	-0.027546277
29	0xbcff493c	-0.03116285
30	0xbb980fa9	-0.0046405387
31	0xbcafd9e3	-0.021466201
32	0x3d2f1e66	0.0427536
33	0xbd85cea6	-0.06533556
34	0xbc937593	-0.0180004
35	0x3bb0fbea	0.0054011242
36	0xbd9b95f9	-0.075969644
37	0xbd51efb7	-0.051254
38	0xbde8b4f1	-0.11362637
39	0x3d10e9e9	0.035379324
40	0x3e201bde	0.1563563
41	0xbd8ee167	-0.06976586
42	0x3b51a466	0.0031988858
43	0x3cc3b5d0	0.023890406
44	0x3c47db10	0.012198225
45	0xbd81327b	-0.063084565
46	0x3d676519	0.0564929
47	0xbde4fda9	-0.11181194
48	0xbd9f826e	-0.07788549
49	0xbdbd1030	-0.09231603
50	0xbd815a6f	-0.06316077
51	0x3d3f2a05	0.046670932
52	0x3d51d8d1	0.051232163
53	0x3de81942	0.113329425
54	0xbdb47b3e	-0.08812569
55	0x3dd9b3d9	0.10630006
56	0x3c842a91	0.016133578
57	0xbdf3c6ba	-0.119031385
58	0xbe09f9e0	-0.13474226
59	0xbc9d4f30	-0.019202799
60	0xba3221b1	-0.00067951815
61	0xbb85c478	-0.004082259
62	0x3e051257	0.12995277
63	0x3c6c94c2	0.0144397635
64	0xbc41e1c6	-0.011833614
65	0x3de4006a	0.111328915
66	0x3d0944eb	0.03351299
67	0xbd048d1e	-0.032361142
68	0x3c23b5a1	0.009992034
69	0xbd061de8	-0.032743365
70	0xbd96f010	-0.07370007
71	0xbd976f78	-0.07394308
72	0xbd681ac3	-0.056666147
73	0x3e18f5ea	0.14937559
74	0x3beafce8	0.007171262
75	0xbda4c0e7	-0.08044606
76	0x3d41e09c	0.047333345
77	0xbe0d7d11	-0.1381724
78	0x3d856456	0.06513278
79	0xbdb761e4	-0.08954218
80	0xbe201f93	-0.15637045
81	0xbdc03257	-0.093846016
82	0xbcea8246	-0.028626572
83	0xbd9602c1	-0.07324744
84	0xbd774a4a	-0.060373582
85	0x3d57e303	0.05270673
86	0x3d176fce	0.03697186
87	0x3d066e7b	0.032820206
88	0xbd737464	-0.05943717
89	0x3d47ab83	0.04874755
90	0x3d9a6247	0.07538276
91	0xbc442c0c	-0.011973392
92	0x3e25b739	0.16183175
93	0x3d51d1c3	0.051225435
94	0x3e24d8a2	0.16098264
95	0xbd8743ea	-0.066047505
96	0x3d04eb49	0.032450948
97	0xbd0c0538	-0.034184664
98	0x3d85f5fa	0.06541057
99	0x3cd52bac	0.026021801
100	0xbd08c0dd	-0.033387054
101	0xbc8ee76b	-0.017444333
102	0x3cc3a87d	0.023884052
103	0x3da27e22	0.07934214
104	0x3c8c83c8	0.017152682
105	0x3d98cf92	0.07461466
106	0x3c8ec32c	0.01742705
107	0xbcb958d5	-0.022625366
108	0xbcadf2a0	-0.021233857
109	0x3da9fb28	0.082998574
110	0xbd04c4fe	-0.03241443
111	0xbdd68d76	-0.104762
112	0xbe1861e9	-0.148811
113	0x3bb56c1a	0.0055365684
114	0x3c0a56ea	0.0084435735
115	0x3d8636e8	0.06553441
116	0xbccfd71b	-0.025371125
117	0x3e0e4626	0.13893947
118	0xbdf9e8ac	-0.12202582
119	0xbcea44fb	-0.028597346
120	0x3d06ebd9	0.032939766
121	0xbe1f28e7	-0.15542947
122	0x3da697bb	0.08134409
123	0x3e1a820d	0.15088673
124	0x3c9c7eda	0.019103456
125	0xbd904224	-0.07043865
126	0xbd5c04e3	-0.053715598
127	0xbe26be78	-0.16283596
128	0xbd19ba50	-0.037531197
129	0xbdbf124c	-0.09329662
130	0xbda3c36b	-0.079962574
131	0xbd3a1cb9	-0.04543755
132	0xbd74ab5c	-0.059733734
133	0xbdbc4cc8	-0.09194332
134	0x3d94a032	0.07257117
135	0xbe1a703e	-0.1508188
136	0x3d5997f9	0.053123448
137	0x3da30966	0.07960777
138	0xbd01d303	-0.031695377
139	0x3d36572a	0.04451672
140	0x3e05de90	0.13073182
141	0xbdc8c0e2	-0.098024145
142	0xbe0d8627	-0.13820706
143	0xbcd5cd41	-0.02609885
144	0x3da69b70	0.08135116
145	0xbd94a70c	-0.07258424
146	0x3d8e0534	0.06934586
147	0x3d057eb7	0.032591548
148	0xbc9fadce	-0.019492056
149	0xbdc200a5	-0.09472779
150	0x3daa9e3a	0.083309606
151	0xbcffcb51	-0.031224879
152	0x3dba1c75	0.09087459
153	0xbd8c7084	-0.06857398
154	0x3c0ab4b2	0.008465933
155	0x3dbc920d	0.092075445
156	0x3dcdbce3	0.10045793
157	0x3d59fc10	0.0532189
158	0x3d45b5d5	0.04826911
159	0xbe07f2eb	-0.1327626
160	0xbbf8897e	-0.0075847497
161	0x3da1ea9f	0.079060785
162	0xbc3fd6b4	-0.011708904
163	0x3d624952	0.055245705
164	0x3d76fba6	0.060298584
165	0x3d94af51	0.072600015
166	0xbddca566	-0.10773735
167	0x3d569dd1	0.0523966
168	0xbce535ca	-0.02797975
169	0xbd3f67cb	-0.046729844
170	0x3d9514cc	0.07279357
171	0xbc77260b	-0.015084754
172	0x3bcedfb0	0.0063132867
173	0xbe00d79a	-0.12582245
174	0xbd4503e0	-0.0480994
175	0xbe0c0393	-0.13673238
176	0xbbfae22c	-0.0076563563
177	0x3d08afa6	0.033370636
178	0x3d937c55	0.07201449
179	0xbd85aec4	-0.065274745
180	0xbcecab8c	-0.028890394
181	0x3dc2c48a	0.09510143
182	0xbe07efc6	-0.1327506
183	0x3dbf5333	0.09342041
184	0xbde520a6	-0.11187868
185	0xbd8d0e09	-0.068874426
186	0x3d46bd8d	0.048520613
187	0x3d4ecf74	0.05049081
188	0x3d855519	0.06510372
189	0x3ccee936	0.025257688
190	0x3d9e2700	0.077222824
191	0x3d82299f	0.06355595
192	0x3dd73164	0.105074674
193	0xbd33b8fe	-0.043877594
194	0x3dd966de	0.106153235
195	0x3e04918d	0.12946148
196	0x3dfc3e6a	0.12316592
197	0x3dd7458d	0.10511313
198	0xbdaf6a50	-0.085651994
199	0x3b9b1cec	0.0047336724
200	0x3d3d0535	0.046147544
201	0x3cd78761	0.02630967
202	0x3e05904f	0.1304333
203	0x3d57b6a4	0.052664414
204	0x3e104e0b	0.14092271
205	0x3da0e947	0.07856994
206	0xbe220fb7	-0.15826307
207	0x3dd5090a	0.10402115
208	0xbe211976	-0.15732369
209	0xbc185fbd	-0.00930017
210	0xbdce95dd	-0.10087178
211	0x3e0077af	0.12545656
212	0xbd347aab	-0.044062298
213	0x3e1fee89	0.15618338
214	0xbdddd69c	-0.10831949
215	0xbd04e549	-0.032445226
216	0xbd88a4b8	-0.066720426
217	0xbdf410f9	-0.119173
218	0xbdc2e8e1	-0.095170744
219	0xbc35782e	-0.011076016
220	0xbd33aede	-0.04386794
221	0xbc832f0d	-0.016013646
222	0x3e091765	0.1338783
223	0xbdd36512	-0.10322012
224	0xbdaf5138	-0.08560413
225	0xbcaffa1a	-0.021481562
226	0x3d3114df	0.043232795
227	0x3dfba0a2	0.12286498
228	0xbda2a9b7	-0.07942527
229	0x3bb31449	0.0054650647
230	0xbcf2a5ab	-0.029620012
231	0xbde30494	-0.110848576
232	0xbb81d3fe	-0.003962039
233	0x3d24850e	0.040165953
234	0xbce9b2d1	-0.02852765
235	0x3d41c98c	0.04731135
236	0x3d944923	0.07240512
237	0xbd939b51	-0.07207359
238	0xbdf631da	-0.12021227
239	0xbd5c3a59	-0.053766582
240	0xbdf38113	-0.11889853
241	0xbde4dbaa	-0.1117471
242	0x3c9e2218	0.019303367
243	0xbd7f4775	-0.062324006
244	0x3d90f574	0.070780665
245	0xbd1751ba	-0.036943175
246	0x3c6d56f0	0.01448606
247	0xbda3b34c	-0.079931825
248	0x3d39e49e	0.045384042
249	0x3d90237b	0.07038017
250	0xbe17338c	-0.14765757
251	0xbd91d212	-0.07120146
252	0x3e21f894	0.15817481
253	0x3dd38ded	0.103298046
254	0xbcd557fb	-0.026042929
255	0xbcf89034	-0.030342199

lstm.weight_hh_l0 f4 [256, 64]
0	0xbd6056b0	-0.05477017
1	0xbd347f30	-0.044066608
2	0xb97bc000	-0.00024008751
3	0x3d8a8be2	0.06764962
4	0x3dff1be2	0.1245649
5	0xbda5cbbc	-0.080955
6	0xbdfd3f38	-0.12365574
7	0x3d7170e8	0.058945566
8	0xbddc3832	-0.10752906
9	0x3dc041f0	0.093875766
10	0x3cd798f8	0.026318058
11	0x3cace770	0.021106452
12	0xbd20e2a8	-0.039278656
13	0xbd2d6ea4	-0.042341843
14	0x3dc879ec	0.0978888
15	0x3beb99e0	0.007189974
16	0xbdedfcfa	-0.11620517
17	0xbda412cc	-0.08011398
18	0x3d9e51c6	0.07730441
19	0x3c52f750	0.012876347
20	0xbb10d500	-0.0022099614
21	0x3d92e76e	0.07173048
22	0x3c894bd8	0.016759798
23	0xbb800280	-0.003906548
24	0x3cae2ff8	0.021263108
25	0xbd182a98	-0.037149996
26	0xbd924002	-0.07141115
27	0x3d5619e0	0.05227077
28	0xbdc5206e	-0.09625326
29	0xbd344938	-0.04401514
30	0xbdc56f1a	-0.096403316
31	0x3bb115e0	0.005404219
32	0x3d8e7470	0.069558024
33	0x3db53534	0.08848038
34	0x3cc7edc0	0.02440536
35	0x3d718b78	0.0589709
36	0xbd110510	-0.03540522
37	0x3d7a1084	0.061050907
38	0x3d9cb718	0.0765211
39	0x3d142ecc	0.03617744
40	0x3c1318f0	0.0089781135
41	0xbdb0eaf6	-0.08638565
42	0x3deb73ba	0.114966825
43	0xbc875098	-0.016517922
44	0x3dfc02c4	0.12305215
45	0xbde7a7fe	-0.11311339
46	0x3d2eade8	0.04264632
47	0x3db5d0ea	0.08877738
48	0xbdf3a8fe	-0.11897467
49	0xbd22b1d0	-0.039720356
50	0x3d31c00c	0.04339604
51	0xbd87da8a	-0.0663348
52	0x3da9fc98	0.083001316
53	0xbde8697e	-0.11348246
54	0xbcabf940	-0.020992875
55	0x3d81bd38	0.06334919
56	0xbdde41f2	-0.10852422
57	0xbd0286e4	-0.031866923
58	0xbc2c8550	-0.010529831
59	0xbd957d40	-0.0729928
60	0x3de300f4	0.11084166
61	0xbd73527c	-0.059404835
62	0x3c5afed0	0.013366416
63	0xbd8b3a38	-0.06798214
64	0xbdcd2cba	-0.100182965
65	0xbdac0064	-0.08398512
66	0xbd191398	-0.0373722
67	0x3d2d20f8	0.04226777
68	0xbdf6d1ac	-0.120517105
69	0x3dd2bf4e	0.10290395
70	0x3d9d2744	0.07673505
71	0x3cc811c0	0.024422526
72	0x3c64fe30	0.013976619
73	0xbd9997e0	-0.07499671
74	0xbc43ee40	-0.011958659
75	0x3d71ba58	0.059015602
76	0xbda8010a	-0.08203323
77	0xbc8f3658	-0.017481968
78	0x3db3a3c0	0.08771467
79	0xbc88f390	-0.016717702
80	0x3d8f135a	0.06986113
81	0x3dcb2f38	0.09921116
82	0xbda6bd0c	-0.081415266
83	0x3d6c2e9c	0.057661638
84	0xbda334d4	-0.079690605
85	0xbca70aa8	-0.020390823
86	0x3d91cfe4	0.0711973
87	0xbd8b5930	-0.068041205
88	0x3da4096c	0.080096096
89	0x3c9d0308	0.019166484
90	0x3c837aa8	0.016049698
91	0xbcae4280	-0.021271944
92	0x3dc2ab94	0.09505382
93	0xbdff9864	-0.12480238
94	0xbd8a6b72	-0.06758775
95	0xbd4a5864	-0.049400702
96	0x3c8de7b0	0.017322391
97	0xbdb387ba	-0.08766122
98	0x3d9ca33c	0.07648322
99	0x3d4cb384	0.049975887
100	0xbd10f5d4	-0.03539069
101	0xbd9f70ba	-0.07785173
102	0xbd3928a0	-0.04520476
103	0x3d7430b0	0.059616745
104	0xbd84f6c4	-0.06492379
105	0xbbb69fc0	-0.005573243
106	0x3d185bf0	0.037197053
107	0x3d2fd8e0	0.042931437
108	0x3d036edc	0.032088146
109	0xbdf3f87a	-0.119126275
110	0xbc19e5a0	-0.009393126
111	0xbcdd5310	-0.027017146
112	0xbdf74d70	-0.12075317
113	0x3ddfcb34	0.1092743
114	0x3d95dcca	0.07317503
115	0x3dc4e0bc	0.09613177
116	0xbd66fda4	-0.056394234
117	0x3caefe70	0.02136156
118	0xbd47a4f4	-0.048741296
119	0xbd157e8c	-0.036497638
120	0x3d501c74	0.050808385
121	0x3dab236c	0.083563656
122	0xbd6edf10	-0.058318198
123	0x3de621e6	0.11236934
124	0xbc420260	-0.011841387
125	0xbd942166	-0.07232933
126	0xbc07d5b0	-0.008290693
127	0xbde6efd2	-0.11276211
128	0x3deb7c3a	0.11498304
129	0xbd8e44c4	-0.0694671
130	0xbd3012f8	-0.04298684
131	0xbdbb51e2	-0.09146477
132	0x3d811c18	0.063041866
133	0x3bbf7fa0	0.0058440715
134	0xbcecb600	-0.028895378
135	0xbd7472e0	-0.059679866
136	0x3d09cce4	0.033642665
137	0xbdafea52	-0.08589615
138	0x3c01fd70	0.007933959
139	0x3c6cf470	0.014462575
140	0x3d8f82e0	0.07007384
141	0xbdc5a856	-0.09651248
142	0x3caab6d0	0.020839125
143	0x3d0f6150	0.035004914
144	0xbd334b20	-0.043772817
145	0xbce8d180	-0.02842021
146	0x3dbfef4c	0.09371814
147	0xbc8dae48	-0.017295018
148	0xbdca2e04	-0.09872058
149	0x3d029850	0.031883538
150	0x3d1ad738	0.037802905
151	0x3d296eac	0.04136531
152	0x3d85de28	0.065365136
153	0x3d12551c	0.035725698
154	0x3d1a8d78	0.03773257
155	0x3d6a4c74	0.057201818
156	0xbbe82e20	-0.0070855767
157	0x3d8a3ea0	0.06750226
158	0xbdb82d04	-0.08992961
159	0xbdbdb8fc	-0.092637986
160	0x3d1e95f8	0.03871724
161	0x3cb7aec8	0.02242221
162	0x3de59540	0.11210108
163	0x3d4d9984	0.050195232
164	0x3d2eeff8	0.04270932
165	0x3dff6454	0.12470308
166	0xbce0b730	-0.0274311
167	0xbd65b91c	-0.056084737
168	0xbd960852	-0.07325806
169	0x3d5dc82c	0.054145977
170	0x3d78a54c	0.060704514
171	0x3dcba2dc	0.09943172
172	0xbd0a04d4	-0.03369601
173	0x3d74f7c0	0.059806585
174	0x3dffaa86	0.12483697
175	0x3d59050c	0.05298333
176	0x3d53ab60	0.051677108
177	0xbd9d602a	-0.076843575
178	0x3c19f890	0.009397641
179	0xbd2a6f7c	-0.041610226
180	0x3c965b20	0.018353999
181	0x3dcb6a34	0.09932366
182	0xbdac55d4	-0.08414808
183	0xbdf3deae	-0.11907707
184	0x3dbad5f2	0.09122838
185	0x3b906760	0.0044068545
186	0xbde8a646	-0.11359839
187	0xbde7c908	-0.113176405
188	0x3d3ee9b0	0.04660958
189	0x370c4000	8.359551e-06
190	0x3df0a45e	0.117501006
191	0xbd5721bc	-0.052522406
192	0x3dac05e8	0.08399564
193	0xbddd02b4	-0.10791531
194	0xbd35bcf0	-0.044369638
195	0x3cafad68	0.021444991
196	0x3cdb5500	0.02677393
197	0x3db2faa2	0.08739211
198	0x3d1a11c8	0.037614614
199	0x3d3f6474	0.04672666
200	0xbd8c08b6	-0.06837599
201	0xbce089d0	-0.027409464
202	0x3d61570c	0.055014655
203	0x3dcd15f2	0.10013951
204	0xbd954f44	-0.07290509
205	0x3d365744	0.044516817
206	0x3dd675ca	0.10471685
207	0x3d16b99c	0.036798105
208	0xbdc18ac8	-0.094502985
209	0x3de419ea	0.11137755
210	0x3da84f76	0.08218281
211	0xbc9532b8	-0.018212661
212	0xbd8eb9a6	-0.069690034
213	0xbc6f71c0	-0.014614522
214	0x3dd79b94	0.10527721
215	0x3d0bf858	0.034172386
216	0xbdb2085e	-0.08693002
217	0xbd13a0b0	-0.036041915
218	0x3d1f669c	0.038916215
219	0x3d98cc5a	0.07460852
220	0xbccfadf0	-0.025351495
221	0x3ccfed80	0.025381804
222	0xbd47d840	-0.048790216
223	0xbd319a9c	-0.043360338
224	0x3d961896	0.07328908
225	0x3df84cd2	0.12124027
226	0xbdcf41ae	-0.10119949
227	0x3d635a98	0.05550632
228	0xbde33c8c	-0.11095533
229	0xbd14c954	-0.036324814
230	0xbd4f2810	-0.050575316
231	0x3da70548	0.08155304
232	0x3dc31330	0.09525144
233	0xbde384fe	-0.111093506
234	0x3dd8dba6	0.105887696
235	0x3d828470	0.06372917
236	0xbd56003c	-0.052246317
237	0x3d9d2c60	0.076744795
238	0x3d53d560	0.051717162
239	0xbdfa8006	-0.1223145
240	0xbdf98154	-0.121828705
241	0xbd3353a4	-0.043780938
242	0x3dcece94	0.100979954
243	0xbca52638	-0.020159826
244	0x3d3d8268	0.046266943
245	0x3df2a654	0.11848131
246	0xbccd6e60	-0.025077045
247	0x3db5dca8	0.088799775
248	0xbdbfaaf4	-0.093587786
249	0x3c5cd8b0	0.013479397
250	0x3d634dc0	0.05549407
251	0xbd20a9b8	-0.039224356
252	0x3d915cdc	0.0709779
253	0xbd48aad8	-0.048991054
254	0x3de0c748	0.1097551
255	0xbddbd55a	-0.10734053

lstm.bias_ih_l0 f4 [256]
0	0x3cbca06f	0.02302572
1	0x3d20f5d4	0.03929694
2	0x3a485a81	0.00076428807
3	0x3dcd00fe	0.10009955
4	0xbbb1dfec	-0.005428305
5	0xbdad06d9	-0.08448572
6	0x3cbd8faa	0.023139793
7	0x3d7fbfb0	0.062438667
8	0xbcfc4a60	-0.030797184
9	0x3e108c6b	0.14116065
10	0xbc257190	-0.010097876
11	0xbd32422c	-0.043520138
12	0x3cd6050b	0.026125452
13	0x3d4fd4a9	0.050739918
14	0xbb8b094c	-0.0042430516
15	0x3c34d3e9	0.011036851
16	0x3bdbe448	0.006710563
17	0x3d340738	0.043952197
18	0xbcdc07b0	-0.026859134
19	0xbce1611a	-0.027512122
20	0x3e095296	0.1341041
21	0xb9e88c2a	-0.0004435492
22	0x3b52fd08	0.0032194275
23	0x3de0a9ca	0.10969885
24	0x3df29e23	0.118465684
25	0x3d884240	0.06653261
26	0x3c0b2dc4	0.008494798
27	0x3d6257fd	0.055259693
28	0x3da590bc	0.080842465
29	0x3ceef485	0.02916933
30	0x3e008bac	0.1255328
31	0x3e156ba5	0.14591844
32	0xbaf269dc	-0.0018494683
33	0x3e25bfa0	0.1618638
34	0x3dbaceeb	0.09121498
35	0x3da1919b	0.078891
36	0xbc025c0b	-0.007956515
37	0x3e1e6dbb	0.15471546
38	0xbc371316	-0.011173984
39	0xbd9ef7d1	-0.07762111
40	0x3a7bd22e	0.00096062094
41	0xbca30d86	-0.01990391
42	0x3d61ab82	0.055095203
43	0x3d78e41a	0.06076441
44	0x3ca73ad4	0.020413794
45	0x3b3bb120	0.002863951
46	0x3e1729ae	0.14761993
47	0xbbcdcdd7	-0.0062806415
48	0x3e0875a7	0.13326131
49	0xbd736489	-0.05942205
50	0x3dc02c36	0.093834326
51	0xbd8aefd6	-0.06784026
52	0xbd1422ae	-0.036165886
53	0xbd2f7c64	-0.042843238
54	0x3ddbee84	0.107388526
55	0xbcac338b	-0.021020671
56	0x3dbfe24b	0.09369334
57	0x3cae8d0c	0.02130749
58	0x3e0700a7	0.13183843
59	0xbcb2bc0d	-0.021818185
60	0xbd165df2	-0.036710687
61	0x3e09d661	0.13460685
62	0xbda817b5	-0.08207647
63	0x3d019d63	0.031644236
64	0x3da92a82	0.08260061
65	0x3deaf1e6	0.1147192
66	0x3dd2d682	0.1029482
67	0xbd8b5b32	-0.068045035
68	0x3df88d88	0.1213637
69	0xbd19ad24	-0.037518635
70	0x3ceadf08	0.028670803
71	0x3da65984	0.081225425
72	0x3ddc8d66	0.10769157
73	0x3da63cb6	0.081170484
74	0xbdfcf8a6	-0.123521134
75	0x3d5f6818	0.05454263
76	0x3db2a976	0.08723728
77	0x3dc696c4	0.09696725
78	0x3cef9f50	0.02925077
79	0x3d829940	0.06376886
80	0xbd8a2742	-0.06745769
81	0x3d4c26cc	0.049841687
82	0xbd667754	-0.056266144
83	0x3df85872	0.121262446
84	0x3d9fa756	0.07795589
85	0xbdc3ea80	-0.09566212
86	0x3dabfd40	0.08397913
87	0xbd8b4c1c	-0.06801626
88	0xb8791000	-5.9381127e-05
89	0x3c277450	0.010220602
90	0xbdeebf10	-0.11657536
91	0xbdb34002	-0.08752443
92	0x3dfbe872	0.12300195
93	0x3d6b61d4	0.057466343
94	0x3da4f35e	0.08054231
95	0x3da9149e	0.082558855
96	0xbd5a178c	-0.053245112
97	0x3dddc926	0.10829382
98	0xbc3772c0	-0.011196792
99	0x3d401dd8	0.04690346
100	0x3de20d6e	0.11037718
101	0x3dc29d12	0.09502615
102	0xbd054cc4	-0.032543913
103	0x3d64d9d8	0.055871814
104	0xbdddec62	-0.10836102
105	0x3d91d236	0.07120173
106	0xbdd9edea	-0.10641082
107	0x3d876558	0.06611127
108	0x3ca49508	0.020090595
109	0x3d46c990	0.04853207
110	0xbd991030	-0.07473791
111	0x3ceaa910	0.028645068
112	0xbd08ccdc	-0.033398494
113	0x3dbbdaa8	0.09172565
114	0xbd202dd4	-0.039106205
115	0x3de072f6	0.10959427
116	0xbd11f038	-0.03562948
117	0x3dcadf94	0.099059254
118	0x3dd6a1a2	0.10480048
119	0x3d8216b6	0.06351988
120	0x3dbe6ece	0.09298478
121	0x3d8cd884	0.068772346
122	0x3d9b6698	0.075879276
123	0x3dd64e2e	0.1046413
124	0x3cb3fa40	0.021969914
125	0x3df1f6c0	0.11814642
126	0xbd2a6bfc	-0.04160689
127	0xbdfb763a	-0.12278409
128	0x3d64e7cc	0.05588512
129	0x3dafe972	0.08589448
130	0x3dfbd2fc	0.122961015
131	0xbe063728	-0.13106978
132	0x3ba7eb66	0.005124497
133	0x3bfdc260	0.0077441186
134	0xbd820a0e	-0.06349574
135	0x3d2c8786	0.042121433
136	0x3dfc61f4	0.123233706
137	0xbd504c06	-0.05085375
138	0xbc8589a1	-0.016300978
139	0x3e1abe8d	0.15111752
140	0x3c7ad4dc	0.015309539
141	0x3e16eeae	0.14739487
142	0xbdaeb1d3	-0.08530011
143	0xbded0a13	-0.11574187
144	0xbbfb1ba9	-0.0076632095
145	0xbd8ba5ee	-0.06818758
146	0x3df7552e	0.120767936
147	0x3df9f8e0	0.12205672
148	0x3cf0313d	0.029320354
149	0x3cae406e	0.021270957
150	0x3d5897d0	0.052879155
151	0x3e0cdefb	0.13756935
152	0xbbc946b7	-0.006142463
153	0x3cc92553	0.02455393
154	0x3df07c29	0.11742432
155	0x3d022aeb	0.03177921
156	0x3c31b899	0.010847234
157	0x3d3ca2e2	0.046053775
158	0x3b317d02	0.0027082567
159	0x3d0b7024	0.034042493
160	0x3e1619b1	0.14658238
161	0xbd36618a	-0.044526614
162	0x3d08beb1	0.033384982
163	0xbd27275d	-0.040809024
164	0x3af21751	0.0018470084
165	0x3e20cb7b	0.15702622
166	0xbc8aeb4a	-0.016957898
167	0x3dda220c	0.10651025
168	0x3d8e1e08	0.06939322
169	0xbdcb1ec5	-0.09917978
170	0x3ddc795c	0.10765335
171	0x3d7911a5	0.060807843
172	0xbd670621	-0.05640233
173	0xbd94a9a4	-0.07258919
174	0xbc5fe59a	-0.013665581
175	0xbe0faf94	-0.14031821
176	0xbc9bbaca	-0.019009966
177	0xbc27aef2	-0.010234581
178	0xbdebb729	-0.115095444
179	0x3d8b283e	0.06794785
180	0xbe0fc708	-0.14040768
181	0xbcca3630	-0.024684042
182	0x3cbf8c3e	0.023382302
183	0x3d8c7d9a	0.06859894
184	0x3c628dbf	0.01382774
185	0x3d956b77	0.07295888
186	0x3d627657	0.05528864
187	0xbd8508ff	-0.064958565
188	0x3e1acdef	0.1511762
189	0x3cdb8612	0.026797328
190	0x3da8aff8	0.082366884
191	0xbdcadfc1	-0.09905959
192	0x3e1fc8b1	0.15603901
193	0x3dcd60c4	0.10028222
194	0xbccc712d	-0.02495631
195	0xbca77fc7	-0.020446671
196	0x3de4073f	0.111341946
197	0xbd2a6bdf	-0.04160678
198	0x3d64d9ba	0.055871703
199	0x3b8373d3	0.00401161
200	0xbc2bcaf9	-0.010485404
201	0x3e01f3f2	0.12690714
202	0xbd938e8e	-0.072049245
203	0x3e1b3c49	0.15159716
204	0xbd59a562	-0.053136237
205	0x3d829ed8	0.06377953
206	0x3e10a9cd	0.14127274
207	0x3be66de0	0.007032141
208	0x3cd672b1	0.026177736
209	0x3e25bdf3	0.16185741
210	0x3d9bb38f	0.076026075
211	0xbd60beed	-0.05486958
212	0xbd16f10a	-0.036850967
213	0x3d5ef6e3	0.05443467
214	0x3dabfecc	0.08398208
215	0xbd0340c6	-0.032044195
216	0x3e0d7433	0.13813858
217	0x3d6886c0	0.056769133
218	0xbca5a3dc	-0.020219736
219	0x3d2c4bd5	0.042064507
220	0x3c6a3250	0.014294222
221	0x3d321132	0.04347343
222	0x3e12646c	0.1429612
223	0x3d68ef00	0.056868553
224	0x3e195724	0.14974648
225	0xbc4dad00	-0.012553453
226	0xbd858d11	-0.06521047
227	0x3e15ed8d	0.146414
228	0xbd8be4b9	-0.06830735
229	0x3d70ea3b	0.05881713
230	0xbdac4db9	-0.08413262
231	0x3e03aee6	0.12859687
232	0x3c9692f5	0.018380621
233	0x3e0b67f2	0.1361387
234	0x3d7d85c4	0.061895147
235	0xbd2b7a6d	-0.0418648
236	0x3da6ca76	0.08144085
237	0x3e0fa323	0.14027075
238	0xbcac23c2	-0.021013144
239	0xbd6effa2	-0.05834926
240	0x3ddf03ee	0.108894214
241	0x3e00693c	0.12540144
242	0x3dbf3898	0.09336966
243	0x3dd7ab94	0.10530773
244	0xbd8c9928	-0.0686515
245	0x3e1dea56	0.15421423
246	0xbb00aeb8	-0.001963539
247	0xbc134ac8	-0.008989997
248	0x3c4133ad	0.011792106
249	0xbd6a20b1	-0.057160083
250	0x3ceb239d	0.028703505
251	0x3d82f2ac	0.06393942
252	0x3da86a1b	0.08223363
253	0xbd15fdfc	-0.03661917
254	0x3daf7d1b	0.08568784
255	0x3d8a0b8c	0.06740484

lstm.bias_hh_l0 f4 [256]
0	0x3df3136b	0.11868938
1	0x3e0f2665	0.1397949
2	0x3de5b872	0.11216821
3	0x3dca5ca9	0.09880955
4	0x3dd3aa0b	0.103351675
5	0xbc968098	-0.018371865
6	0x3e165e02	0.14684299
7	0x3ddbb4c8	0.10727841
8	0x3db209a9	0.08693249
9	0x3e269604	0.16268164
10	0xbd1a1999	-0.037622068
11	0x3df11945	0.11772398
12	0xbd6016ca	-0.054709233
13	0x3d6500f5	0.055909116
14	0xbc984ca2	-0.018591229
15	0xbcbf3729	-0.023341732
16	0x3d869a0d	0.065723516
17	0x3c81b0ea	0.01583143
18	0x3dcd2a47	0.100178294
19	0x3d50b424	0.050953045
20	0x3e057b11	0.13035227
21	0x3df8a41f	0.121406786
22	0xbcee6bf8	-0.029104218
23	0x3d8fa2e1	0.070134886
24	0x3de95501	0.11393166
25	0x3be9515c	0.0071202945
26	0xbd996be3	-0.07491281
27	0x3d83daa7	0.06438189
28	0x3d8f54b6	0.06998579
29	0x3d477ea0	0.048704743
30	0xbcc00306	-0.023438942
31	0x3d18bb0e	0.037287764
32	0x3b07d543	0.002072648
33	0x3d3c6270	0.045992315
34	0x3c0944a3	0.008378181
35	0xbd14f0b1	-0.036362354
36	0x3d383c87	0.0449796
37	0x3d6c9ffe	0.057769768
38	0x3df9cada	0.12196894
39	0xbdbbb37b	-0.091650926
40	0x3ce2a371	0.027665826
41	0x3df76451	0.12079681
42	0x3d2bfcfc	0.04198931
43	0x3de91fe7	0.11383038
44	0xbd0f078e	-0.034919314
45	0xbd78a969	-0.060708437
46	0x3c9b0304	0.018922336
47	0x3d579a7d	0.052637566
48	0xbd700571	-0.05859894
49	0xbc14f001	-0.0090904245
50	0xbd3a859a	-0.04553757
51	0x3deb355e	0.11484788
52	0xbd2b9ccb	-0.041897576
53	0x3dffb494	0.124856144
54	0xbdc988f0	-0.09840572
55	0x3dad88a6	0.08473329
56	0x3d98dc39	0.07463879
57	0xbd8ae3f8	-0.06781763
58	0x3e0b8be0	0.13627577
59	0xbd5f7670	-0.05455631
60	0xbd7d650a	-0.061863936
61	0x3d69086f	0.05689281
62	0xbd2a0560	-0.041509032
63	0xbcfdc1be	-0.030976173
64	0x3db72308	0.089422286
65	0x3cf90260	0.03039664
66	0xbd985d1c	-0.07439634
67	0x3dcbb352	0.09946312
68	0xbd43f5e0	-0.047841907
69	0x3ccefe90	0.02526787
70	0xbd7062a8	-0.058687836
71	0x3d43938c	0.047748134
72	0x3d647380	0.055774212
73	0x3b971120	0.0046101958
74	0x3dffecdc	0.12496349
75	0xbc986ae0	-0.01860565
76	0xbd317720	-0.043326497
77	0xbd1f4904	-0.038887993
78	0x3d915c6c	0.07097706
79	0x3df73278	0.12070173
80	0x3c5f79b0	0.013639852
81	0x3d0f6d08	0.03501609
82	0x3db9331a	0.0904295
83	0xbd172ecc	-0.036909863
84	0xbc02a340	-0.007973492
85	0xbdec836e	-0.11548506
86	0xbd02b714	-0.03191288
87	0xbdc033c2	-0.09384872
88	0x3d66ef68	0.05638066
89	0xbb0b9ac0	-0.0021301955
90	0xbcae47a8	-0.021274403
91	0xbc9f80b8	-0.019470558
92	0x3d98f3ac	0.07468352
93	0x3dfdf7c6	0.12400775
94	0x3d91e43c	0.071236104
95	0x3dfd7912	0.12376608
96	0xbde66f5e	-0.1125171
97	0x3d3b6114	0.045746878
98	0xbd13eb74	-0.036113217
99	0x3dad4742	0.08460857
100	0xbdb0c254	-0.08630815
101	0x3c1dd750	0.009633854
102	0x3d0fc354	0.03509839
103	0xbd0e1db0	-0.03469628
104	0xbd67dddc	-0.056608066
105	0x3d2b62d8	0.04184231
106	0x3de5065e	0.11182855
107	0xbd834fb8	-0.064116895
108	0x3c7276a0	0.01479879
109	0xbcfa96d8	-0.030589506
110	0xbd4b2588	-0.04959634
111	0xbdc92142	-0.098207965
112	0xbd5ce14c	-0.053925797
113	0x3da8d550	0.08243811
114	0xbc0d79a0	-0.008634955
115	0xbd8a7daa	-0.0676225
116	0x3db288ea	0.087175205
117	0xbc965978	-0.018353209
118	0x3dab13a8	0.083533585
119	0xbbf73cc0	-0.0075450838
120	0x3de97626	0.11399488
121	0x3df0a780	0.11750698
122	0xbd00ee08	-0.031477004
123	0xbbf33440	-0.007422
124	0x3d39d304	0.045367256
125	0x3db24d14	0.08706108
126	0xbc575910	-0.013143793
127	0xbd8d58ac	-0.069016784
128	0x3dbb7f11	0.09155095
129	0x3d8aff0e	0.06786929
130	0x3e16381a	0.14669839
131	0x3d372be6	0.0447196
132	0x3d0bf100	0.034165382
133	0x3df3f603	0.119121574
134	0xbcdfc344	-0.02731479
135	0x3dc5a16c	0.096499294
136	0xbbdcc987	-0.006737891
137	0xbddde6bc	-0.10835025
138	0xbd4794f8	-0.048726052
139	0xbc076abf	-0.008265196
140	0x3de20456	0.11035983
141	0xbd117271	-0.03550953
142	0x3d62c88f	0.05536705
143	0xbcad79a4	-0.021176167
144	0xbde3cc7c	-0.11122987
145	0x3cd5b7a5	0.026088545
146	0xbc86303d	-0.016380424
147	0xbd9bcc38	-0.07607311
148	0x3cd5c10d	0.02609303
149	0x3e100875	0.14065726
150	0xbde48d8c	-0.111598104
151	0xbc3bb23a	-0.011456067
152	0x3dd8d73c	0.10587928
153	0xbd94f2ca	-0.07272871
154	0xbc1a2455	-0.009408076
155	0xbdf6eb6e	-0.120566234
156	0xbd51b8d7	-0.051201668
157	0xbe1d3233	-0.1535118
158	0xbe044707	-0.1291772
159	0xbe0d50ce	-0.13800356
160	0xbc2749e5	-0.010210489
161	0xbdc454e1	-0.09586502
162	0xbe08f33d	-0.13374038
163	0x3d9bc6d4	0.07606283
164	0x3dca059b	0.098643504
165	0x3c8b9dc1	0.017042996
166	0x3cfee0b8	0.031113014
167	0xbd5ebc30	-0.05437869
168	0x3d7dcf86	0.061965488
169	0x3da0c827	0.07850676
170	0xbd060ad5	-0.032725174
171	0x3dc80718	0.09766978
172	0xbdfaa57a	-0.122385934
173	0x3d0484c1	0.032353166
174	0xbdce47d1	-0.10072292
175	0xbdfc1457	-0.12308567
176	0x3d8361e5	0.06415156
177	0xbdc9a977	-0.09846776
178	0xbdfcec63	-0.12349775
179	0x3dc4f158	0.09616345
180	0xbe0adbc7	-0.13560401
181	0x3db44ab4	0.08803311
182	0xbd3e25cc	-0.046422765
183	0x3df6761f	0.120342486
184	0x3d80335a	0.062597945
185	0x3df0e98b	0.11763295
186	0xbdec3019	-0.115326114
187	0x3dfffae9	0.12499029
188	0xbb02a689	-0.0019935688
189	0xbdc18f94	-0.094512135
190	0xbbeb7649	-0.0071857315
191	0x3d86b21f	0.06576943
192	0xbbb67784	-0.0055684466
193	0x3c781a38	0.01514297
194	0xbc57e9fc	-0.013178345
195	0x3d241a00	0.040063858
196	0x3d03264c	0.032018945
197	0x3d856e9c	0.06515238
198	0x3deed0b8	0.11660904
199	0x3ded9b22	0.11601855
200	0x3dfc84fe	0.12330054
201	0xbca12a43	-0.019673472
202	0xbcf0427b	-0.029328575
203	0x3e217521	0.15767337
204	0x3dd9026e	0.105961666
205	0x3df5fbb4	0.12010899
206	0x3de23dd6	0.110469505
207	0x3dc79929	0.0974601
208	0xbd3116a0	-0.043234468
209	0x3de32671	0.110913165
210	0x3d509427	0.05092254
211	0xbd7f140e	-0.062274985
212	0xbba02cfe	-0.004888176
213	0x3d21216a	0.039338507
214	0xbd42aae7	-0.047526266
215	0x3dbb52c6	0.09146647
216	0x3d449efa	0.048003174
217	0xbce91cc4	-0.0284561
218	0x3e042045	0.12902935
219	0x3d5cda8b	0.053919356
220	0x3d2d2d36	0.042279445
221	0xbd86a576	-0.06574528
222	0x3cfa0be0	0.03052324
223	0x3df923a6	0.121650025
224	0xbba975ee	-0.005171529
225	0x3d042bd2	0.032268353
226	0xbcb63bc2	-0.022245292
227	0x3d846264	0.06464079
228	0x3d97bc12	0.074089184
229	0x3dcc8403	0.09986117
230	0x3d898867	0.0671547
231	0xbbaaba92	-0.005210229
232	0x3c9acfcd	0.018897915
233	0xbd424544	-0.047429338
234	0x3daa93e5	0.0832899
235	0xbc8529cb	-0.01625528
236	0x3d939fef	0.07208239
237	0x3c605587	0.013692266
238	0x3e066d4b	0.1312763
239	0x3c141424	0.009038005
240	0xbc94c70c	-0.01816132
241	0x3e0d66c3	0.13808732
242	0x3d826046	0.06366019
243	0x3e137580	0.14400291
244	0x3dc1c4b0	0.09461343
245	0x3e1da53a	0.1539506
246	0xbcaddaec	-0.021222554
247	0x3de29b2a	0.110647514
248	0xbd44d335	-0.048052985
249	0x3b290b15	0.002579396
250	0xbd61c371	-0.055118028
251	0x3d28e812	0.041236944
252	0xbc5bdf7c	-0.013419982
253	0x3df144a3	0.117806695
254	0x3de7c98b	0.11317738
255	0x3e01ac78	0.12663448

lstm.weight_ih_l1 f4 [256, 64]
0	0x3d3595b0	0.044332206
1	0xbd68dc6b	-0.056850832
2	0x3ddcb69b	0.10777017
3	0xbe10c6e6	-0.14138374
4	0x3b032ecc	0.0020016907
5	0x3df3a845	0.11897329
6	0x3d479f7b	0.048736077
7	0x3df7f97e	0.12108134
8	0x3e038465	0.12843473
9	0xbe1217e8	-0.14266932
10	0xbdd765ce	-0.105174646
11	0xbdb8eab1	-0.09029139
12	0xbcf761cd	-0.030198002
13	0x3dbcb11f	0.09213471
14	0xbe1955f0	-0.14974189
15	0xbde1b688	-0.11021143
16	0xbd95536f	-0.07291304
17	0x3da442fd	0.080205895
18	0x3dc85c18	0.097831905
19	0x3c1ac413	0.009446162
20	0x3daded06	0.08492474
21	0x3ccb856d	0.024843896
22	0xbc9d211d	-0.019180829
23	0xbd20e76d	-0.039283205
24	0x3d2510b4	0.040299132
25	0x3da87c0b	0.08226784
26	0xbd2d1f36	-0.042266093
27	0xbbdfcf3c	-0.006830124
28	0x3dcd255a	0.1001689
29	0x3da021c8	0.07818943
30	0x3dc6094f	0.09669744
31	0x3bee59bb	0.0072738803
32	0xbda21d79	-0.07915778
33	0xbd9c105b	-0.07620307
34	0xbd2a2dd4	-0.04154761
35	0x3e0fbe81	0.14037515
36	0xbda0c979	-0.07850928
37	0x3d87977a	0.06620689
38	0x3d893140	0.06698847
39	0x3dab1b78	0.083548486
40	0xbc0d47c2	-0.008623065
41	0x3d5bbda4	0.053647652
42	0x3d3518af	0.044212993
43	0xbdce57fc	-0.100753754
44	0xbd82f8ca	-0.06395109
45	0xbded6384	-0.11591247
46	0xbdcacf5f	-0.09902834
47	0xbdf271db	-0.118381225
48	0x3d3424d0	0.04398042
49	0xbce2b058	-0.027671978
50	0xbe0ddc1e	-0.138535
51	0x3cff12aa	0.03113683
52	0x3d8ba1e6	0.06817989
53	0xbd3fc585	-0.04681923
54	0x3cf07556	0.029352825
55	0x3d6bdb40	0.05758214
56	0xbd8dea79	-0.06929488
57	0xbd82f80d	-0.06394968
58	0xbe12f22e	-0.14350197
59	0xbd061a82	-0.032740124
60	0x3d9594c3	0.07303765
61	0xbd69feee	-0.057127886
62	0x3d6dfc92	0.058102198
63	0x3d2598a6	0.04042878
64	0x3dc0fb1c	0.09422895
65	0xbd87072e	-0.06593166
66	0x3d906ea3	0.07052352
67	0xbda691f4	-0.08133307
68	0x3cbba9a2	0.022908036
69	0xbc74e791	-0.014947788
70	0xbda24581	-0.07923413
71	0xbdac8fc7	-0.08425861
72	0xbd9621f8	-0.07330698
73	0x3d425b92	0.04745061
74	0xbccf6ad8	-0.025319502
75	0x3e0f743b	0.14009182
76	0xbdbb3778	-0.09141439
77	0xbcd6b587	-0.026209606
78	0xbd15f8d9	-0.036614273
79	0x3cac4b9b	0.021032145
80	0x3da2a85d	0.07942269
81	0x3d902536	0.070383474
82	0xbdc5e8eb	-0.09663566
83	0x3d06cac4	0.032908216
84	0xbc7e119d	-0.015507129
85	0x3d75315d	0.05986153
86	0x3ca0daca	0.019635577
87	0x3b9b0afb	0.0047315336
88	0x3d9d5ead	0.076840736
89	0x3cefb0f2	0.029259179
90	0x3b92d5ee	0.004481069
91	0xbbad756c	-0.005293539
92	0xbd19f737	-0.037589278
93	0xbd2a8448	-0.04163006
94	0x3ca3229f	0.01991397
95	0xbd8097dd	-0.062789656
96	0x3dbfaf66	0.093596265
97	0xbd0bd352	-0.034137078
98	0xbcdb1fee	-0.026748624
99	0x3dc9616d	0.098330356
100	0xbd80c50a	-0.06287582
101	0xbd861a7f	-0.065480225
102	0x3d960e67	0.07326966
103	0x3dd4a213	0.10382476
104	0x3dd7eb40	0.10542917
105	0x3c1b61bf	0.009483754
106	0x3ccd3444	0.025049336
107	0xbd3b14e6	-0.045674227
108	0xbd57e94a	-0.052712716
109	0xbcc96932	-0.024586294
110	0xbd3b9623	-0.04579748
111	0xbd011cfc	-0.031521782
112	0x3dc9ec77	0.09859555
113	0xbe02657d	-0.12734027
114	0x38e6fb90	0.00011014112
115	0xbcba5b6a	-0.022748668
116	0xbdb3a04b	-0.08770808
117	0xbdb7e19f	-0.08978581
118	0x3e0cdf47	0.13757049
119	0xbd104d06	-0.035229705
120	0xbd3100ac	-0.04321353
121	0xbd2d5265	-0.042314906
122	0xbdb4f395	-0.08835522
123	0x3dbb1428	0.09134704
124	0x3d3b889c	0.045784578
125	0xbda293b9	-0.07938332
126	0xbd0f6ecb	-0.03501777
127	0x3d8f1921	0.06987215
128	0xbdaee8da	-0.08540507
129	0x3d80bc61	0.062859304
130	0x3e09d614	0.1346057
131	0xbe064d87	-0.13115512
132	0xbd3c1b1c	-0.04592429
133	0xbd3b026b	-0.045656603
134	0x3d4ab6c0	0.04949069
135	0xbd8da99b	-0.06917115
136	0x3d5f0066	0.05444374
137	0x3dca5f81	0.09881497
138	0xbd92401b	-0.071411334
139	0x3dc5e4b0	0.09662759
140	0xbdcb6896	-0.099320576
141	0xbdc8441f	-0.09778618
142	0x3dcb29f4	0.09920111
143	0x3cacf303	0.02111197
144	0x3d19f5dd	0.03758799
145	0x3d4ad47b	0.049519043
146	0xbd830a3a	-0.06398435
147	0x3e057404	0.13032538
148	0xbdd2be4f	-0.10290205
149	0xbd717448	-0.058948785
150	0xbc6eb25e	-0.014568893
151	0xbd43179c	-0.047629938
152	0x3e020a1e	0.12699172
153	0xbe13eaa8	-0.14444983
154	0x3d4805c2	0.048833616
155	0x3d51f276	0.05125662
156	0x3c995e4e	0.018721726
157	0xbdfc7aa4	-0.12328079
158	0x3d6e4144	0.05816771
159	0xbe0cf4ef	-0.1376531
160	0xbd52a039	-0.05142233
161	0x3dc878d1	0.09788669
162	0xbe01188f	-0.12607025
163	0xbdc6479c	-0.09681627
164	0xbd9f030e	-0.077642545
165	0x3d029d95	0.031888563
166	0x3db7efc8	0.089812815
167	0xbd9c9857	-0.07646244
168	0xbd30d18e	-0.043168597
169	0xba47942c	-0.0007613327
170	0xbd84d503	-0.06485941
171	0x3ded09b2	0.11574115
172	0x3c7552c2	0.014973344
173	0xbcb0c16a	-0.021576602
174	0xbd429abb	-0.047510844
175	0xbdf0ee20	-0.11764169
176	0x3ddf7659	0.10911245
177	0xbcd05a81	-0.02543378
178	0xbdc195b6	-0.09452383
179	0x3c7b034a	0.015320608
180	0xbcfd6f97	-0.030937
181	0xbdc21f0e	-0.094785795
182	0x3d8c7772	0.0685872
183	0xbd8ba7bf	-0.068191044
184	0x3dcc8b0d	0.09987459
185	0x3dc9c418	0.09851855
186	0x3ab49ee0	0.0013780259
187	0xbc05160e	-0.008122934
188	0x3df539b5	0.11973897
189	0x3b5eac3e	0.0033977176
190	0xbbfd2f63	-0.007726596
191	0xbdfe4383	-0.124152206
192	0xbd7cc14e	-0.061707787
193	0xbd64c301	-0.055850033
194	0x3d0d0c73	0.0344357
195	0xbe171597	-0.1475433
196	0xbd8f69d0	-0.07002604
197	0xbd8d9ab4	-0.06914273
198	0xbd1089f7	-0.035287824
199	0x3d3fc03e	0.046814196
200	0xbd87c000	-0.06628418
201	0xbd92d0a4	-0.07168701
202	0xbe2365d9	-0.1595682
203	0x3e2aa6eb	0.16665237
204	0x3db65094	0.08902088
205	0xbd2a1399	-0.041522596
206	0x3d54a6e1	0.05191696
207	0x3d2d3322	0.042285092
208	0x3befcdc9	0.0073182327
209	0x3d2f7220	0.042833447
210	0xbd5e8db6	-0.054334365
211	0x3cc29b03	0.023755556
212	0xbcbee662	-0.023303214
213	0x3d6afc51	0.057369534
214	0x3d379335	0.044818122
215	0x3e041872	0.1289995
216	0x3d86a0b6	0.06573622
217	0x3cf49bd0	0.029859453
218	0x3d3ca0dd	0.04605185
219	0x3d337deb	0.043821257
220	0xbe184914	-0.14871627
221	0xbc6c164e	-0.014409615
222	0xbd45b4be	-0.048268072
223	0x3af383c4	0.0018578698
224	0x3d08ca2f	0.033395942
225	0xbc93a8a2	-0.018024746
226	0x3d1756c6	0.036947988
227	0x3d386069	0.04501382
228	0x3dda3ed1	0.106565125
229	0x3e0ee0ea	0.13952985
230	0xbd4bf793	-0.049796652
231	0xbd54b17a	-0.051927067
232	0xbc89b25c	-0.016808681
233	0xbd238c88	-0.039928943
234	0xbd88f309	-0.0668698
235	0xbd128c4c	-0.03577833
236	0xbdf6a079	-0.120423265
237	0xbe0c44c4	-0.13698107
238	0xbdb43635	-0.08799402
239	0x3d3fd670	0.046835363
240	0xbcad2b84	-0.021138914
241	0xbd8e2928	-0.06941444
242	0x3d761a25	0.060083527
243	0x3de37172	0.11105622
244	0xbd35d841	-0.04439569
245	0xbc5e564c	-0.0135703795
246	0x3c65ee85	0.014033918
247	0x3cd62039	0.026138412
248	0x3d155604	0.036458984
249	0x3d83db07	0.064382605
250	0xbc47e8c1	-0.012201489
251	0x3dcb16a0	0.09916425
252	0x3d8caf72	0.06869401
253	0xbc88f3bd	-0.016717786
254	0xbc06b471	-0.0082217315
255	0x3d05ceaa	0.032667793

lstm.weight_hh_l1 f4 [256, 64]
0	0xbd2e5470	-0.042560995
1	0xbdc6fd40	-0.09716272
2	0x3ddfe70c	0.109327406
3	0x3da17ba8	0.07884914
4	0x3ce8be80	0.02841115
5	0xbdce3fba	-0.100707486
6	0xbd869bac	-0.06572661
7	0x3c86b3d0	0.016443163
8	0x3dbab0c4	0.091157466
9	0x3bd08920	0.006364003
10	0x3de732a2	0.11288954
11	0xbcabef38	-0.020988092
12	0xbda0253e	-0.078196034
13	0x3ca12b38	0.019673929
14	0x3d5ba3f4	0.053623155
15	0xbdc4ffa2	-0.096190706
16	0xbbf5d7e0	-0.007502541
17	0x3d477ec0	0.048704863
18	0x3d4fe7a0	0.050758004
19	0xbd371584	-0.044698253
20	0xbcadda50	-0.021222264
21	0x3cb95e10	0.02262786
22	0x3dcce65a	0.100048736
23	0xbd03d830	-0.032188594
24	0xbb004440	-0.001957193
25	0xbdfca588	-0.1233626
26	0x3da4c076	0.080445215
27	0xbd5ebd00	-0.054379463
28	0x3dfd6c42	0.12374164
29	0x3de51d84	0.1118727
30	0x3cad4ac8	0.021153823
31	0xba330e00	-0.0006830394
32	0xbd7961d4	-0.06088431
33	0xbdfca344	-0.12335828
34	0x3d54d074	0.05195661
35	0x3de3b340	0.111181736
36	0x3cf00548	0.029299393
37	0xbd0c7cc4	-0.034298673
38	0xbdabac4a	-0.08382471
39	0xbde73d12	-0.11290945
40	0xbcd7ee68	-0.026358798
41	0x3d6d4398	0.05792579
42	0x3cf27340	0.029595971
43	0x3dbee6e8	0.093213856
44	0x3d189be8	0.03725806
45	0xbbb88680	-0.005631268
46	0x3c49c830	0.012315795
47	0xbdf771b0	-0.12082231
48	0xbd0adb48	-0.03390053
49	0xbd98b14e	-0.07455693
50	0xbd96e16a	-0.07367213
51	0xbd66ad5c	-0.056317672
52	0xbc781230	-0.015141055
53	0xbdfc8c44	-0.12331441
54	0x3cb10bb8	0.021612033
55	0xbdfdbd9c	-0.12389681
56	0xbda449cc	-0.08021888
57	0xbd175724	-0.03694834
58	0x3de86b4e	0.11348592
59	0xbdbd5fe2	-0.09246804
60	0x3d0a9b04	0.03383924
61	0x3defdfe0	0.11712623
62	0x3ccfc428	0.02536209
63	0x3d55a990	0.05216366
64	0x3c7f7e70	0.01559411
65	0x3dcd8cbc	0.100366086
66	0x3d6cad30	0.057782352
67	0x3d952afa	0.07283588
68	0x3c4a46f0	0.012346014
69	0xbda44a6a	-0.08022006
70	0xbcf358b0	-0.029705375
71	0xbcafca20	-0.021458685
72	0x3d9a7e14	0.07543579
73	0x3d695314	0.056963995
74	0xbd675e64	-0.056486502
75	0x3dd8b220	0.1058085
76	0x3c4e3f00	0.012588263
77	0xbdf33202	-0.118747726
78	0xbd56e7f0	-0.052467287
79	0xbc37a2f0	-0.011208281
80	0x3db04b3a	0.08608098
81	0x3df37496	0.118874714
82	0xbc550ce0	-0.013003558
83	0x3de134fe	0.109964356
84	0x3c9a66b8	0.018847808
85	0x3dfa0654	0.12208238
86	0x3c328c40	0.010897696
87	0x3bfa19e0	0.007632479
88	0xbd694cbc	-0.056957945
89	0xbdf2fde6	-0.118648335
90	0xbd086844	-0.03330256
91	0xbb3d7b00	-0.0028912425
92	0xbd006188	-0.031343013
93	0x3d584704	0.0528021
94	0x3c646110	0.013939157
95	0xbd56be2c	-0.052427456
96	0x3d23be48	0.03997639
97	0xbca2a478	-0.019853815
98	0x3de92b1c	0.113851756
99	0x3d8fed24	0.07027653
100	0x3ccc3888	0.0249293
101	0x3de134a4	0.109963685
102	0x3dd241c6	0.102664515
103	0x3daf7e3e	0.08569001
104	0xbda77944	-0.081774265
105	0xbce42b48	-0.02785267
106	0x3db3cbf6	0.08779137
107	0xbcab0d18	-0.020880267
108	0x3ddaad0a	0.10677536
109	0xbd99cc62	-0.07509686
110	0x3cc5a0f8	0.024124607
111	0x3decb39e	0.11557697
112	0xbd588ad8	-0.052866787
113	0x3d98fefa	0.07470508
114	0xbd7cf878	-0.061760396
115	0x3df8cd34	0.121485144
116	0x3cc759f0	0.024334878
117	0x3ad19e00	0.0015992522
118	0xbc8ed630	-0.017436117
119	0x3da9f28a	0.08298214
120	0xbdcc0bde	-0.09963201
121	0xbd541ebc	-0.051787123
122	0x3d204de0	0.039136767
123	0xbc39b020	-0.011333495
124	0x3c445270	0.011982545
125	0xbda6138c	-0.08109197
126	0xbd2b1958	-0.041772217
127	0xbcd3edc0	-0.025870204
128	0x3d519370	0.051165998
129	0x3dde9d68	0.108698666
130	0x3de4f35e	0.11179231
131	0x3cb77ba8	0.022397831
132	0x3ccc1b70	0.024915427
133	0x3db09a78	0.086232126
134	0x3d7946e8	0.060858637
135	0xbdd4e7aa	-0.10395749
136	0xbd447414	-0.047962263
137	0x3d369d00	0.04458332
138	0x3dacfb6a	0.08446391
139	0x3d3eb764	0.046561614
140	0xbde43af0	-0.11144054
141	0xbd7b8dd8	-0.06141457
142	0xbc323300	-0.010876417
143	0x3d99b75a	0.07505675
144	0xbdb04a60	-0.08607936
145	0x3d31f5cc	0.0434473
146	0x3d6a6484	0.057224765
147	0x3da2ea9a	0.07954903
148	0x3d67c05c	0.056579933
149	0x3da1ce72	0.079007044
150	0xbd6e4598	-0.05817184
151	0x3d2cd410	0.042194426
152	0x3d917a96	0.071034595
153	0xbcebf060	-0.028801143
154	0x3dc1b72c	0.094587654
155	0xbd305a2c	-0.043054745
156	0xbde91b06	-0.113821074
157	0x3c407df0	0.011748776
158	0xbd88c2f0	-0.066778064
159	0xbc32f200	-0.010921955
160	0xbc070c80	-0.008242726
161	0xbce22010	-0.02760318
162	0x3d887030	0.06662023
163	0xbcca34d0	-0.024683386
164	0x3dd330aa	0.10312016
165	0xbc1be740	-0.0095155835
166	0xbc6c5b80	-0.014426112
167	0x3d185e10	0.03719908
168	0x3bdc3340	0.0067199767
169	0x3dfb809e	0.12280391
170	0x3de1a8bc	0.11018512
171	0x3df4cb6e	0.11952864
172	0xbdb9fd20	-0.09081483
173	0x3df2d1c4	0.11856416
174	0xbde1b494	-0.11020771
175	0x3df15dc6	0.11785464
176	0xbd9c7cf2	-0.07641019
177	0xbde1728e	-0.11008178
178	0xbd1a67c4	-0.037696615
179	0x3dc9a990	0.098467946
180	0xbdd5c478	-0.10437864
181	0xbd100de0	-0.035169482
182	0x3d0ccd4c	0.034375474
183	0x3d4ec500	0.050480843
184	0xbddab998	-0.106799304
185	0xbcbeea08	-0.023304954
186	0xbd0eefa4	-0.034896508
187	0x3d8947c0	0.06703138
188	0x3db13e16	0.0865442
189	0xbd27aaf4	-0.040934518
190	0x3d869e66	0.06573181
191	0x3c6dfc50	0.014525488
192	0x3d7cbc64	0.0617031
193	0xbd40d364	-0.047076598
194	0x3d38dd60	0.045132995
195	0x3dcb946e	0.0994042
196	0xbc7eb4e0	-0.015546054
197	0x3d3a56e4	0.04549302
198	0x3dff5cd2	0.12468876
199	0xbdbefdc4	-0.09325746
200	0xbda3bdc4	-0.07995179
201	0xbd66487c	-0.05622147
202	0xbd8df052	-0.06930603
203	0xbd950bf8	-0.072776735
204	0xbd8afe36	-0.06786768
205	0x3d218ae0	0.039439082
206	0xbd873602	-0.06602098
207	0x3d773c10	0.060360014
208	0x3d653828	0.055961758
209	0xbdf2fc24	-0.11864498
210	0x3dd55d72	0.10418214
211	0xbb3f30c0	-0.0029173344
212	0x3ddda988	0.10823351
213	0xbd77f6fc	-0.060538277
214	0xbd9fb264	-0.07797697
215	0x3db799d2	0.08964886
216	0xbd745e98	-0.059660524
217	0x3d7690e8	0.060196787
218	0xbde0202c	-0.10943636
219	0x3d421400	0.047382355
220	0x3c4d7730	0.012540624
221	0xbc671870	-0.014104947
222	0xbd13d344	-0.03609015
223	0xbda3b9a2	-0.07994391
224	0xbd67b66c	-0.056570455
225	0xbd867920	-0.065660715
226	0xbdc3affa	-0.09555049
227	0x3da14728	0.078749
228	0x3d84cb8a	0.064841345
229	0xbde71a70	-0.112843394
230	0x3d93fc76	0.072258875
231	0xbdc759b4	-0.097339064
232	0xbdfbfd96	-0.12304227
233	0x3dff8256	0.124760315
234	0xbdc11ee4	-0.0942972
235	0x3d935334	0.07193604
236	0x3d32cc40	0.04365182
237	0xbdde49c6	-0.10853915
238	0xbc804430	-0.015657514
239	0x3ddf3aea	0.10899909
240	0xbdfec660	-0.12440181
241	0x3d9f6668	0.07783204
242	0xbde4aa1c	-0.11165258
243	0xbc855570	-0.016276091
244	0x3def381e	0.116806254
245	0xbdbb17b0	-0.091353774
246	0x3d265f00	0.040617943
247	0x3d9e5464	0.0773094
248	0x3d119220	0.035539746
249	0xbdbfd152	-0.093660966
250	0xbd35880c	-0.044319198
251	0xbd8e77c4	-0.06956437
252	0xbd6dcc10	-0.058055937
253	0xbda9e216	-0.082950756
254	0x3c8d61b8	0.01725851
255	0x3d30f960	0.043206573

lstm.bias_ih_l1 f4 [256]
0	0xbdc835d3	-0.09775891
1	0xbd761bcf	-0.060085114
2	0x3dbaa37e	0.09113215
3	0x3d13ca59	0.036081646
4	0x3da51680	0.08060932
5	0xbda2c2f5	-0.07947341
6	0x3d83bdeb	0.06432708
7	0x3da9fb98	0.08299941
8	0xbd7ada1e	-0.06124317
9	0x3d9cb710	0.07652104
10	0xbcff464f	-0.031161455
11	0xbd9f77a8	-0.077864945
12	0x3dfa487c	0.122208565
13	0x3d6a769f	0.057242032
14	0x3e292957	0.16519676
15	0x3e23676e	0.15957424
16	0xbdc0dea3	-0.094174646
17	0xbd2b79f2	-0.041864343
18	0x3c88859c	0.016665272
19	0x3be22134	0.006900931
20	0x3debf168	0.11520654
21	0x3e049432	0.12947157
22	0xba60b8e8	-0.0008572475
23	0x3d29565c	0.041342124
24	0x3be9a663	0.0071304305
25	0xbb81bc16	-0.003959189
26	0x3e03daec	0.12876481
27	0x3c244d75	0.010028233
28	0xbd81692d	-0.06318889
29	0x3e16908b	0.14703576
30	0x3c9622b2	0.01832709
31	0x3da5f27f	0.08102893
32	0xbd8f3402	-0.069923416
33	0x3d8e01d4	0.069339424
34	0x3d948584	0.072520286
35	0x3de50a42	0.11183597
36	0x3ca46811	0.020069154
37	0xbdefff16	-0.11718576
38	0xbd92515e	-0.07144426
39	0x3d1f62cf	0.03891259
40	0x3e101925	0.14072092
41	0xbd5dda69	-0.05416337
42	0xbc215e16	-0.009849092
43	0x3c8208c7	0.015873326
44	0x3df50337	0.11963504
45	0xbd113e5d	-0.035459865
46	0xbba4ad06	-0.005025509
47	0x3dfcc29e	0.12341808
48	0x3e04e3b2	0.12977484
49	0x3e0497c6	0.12948522
50	0x3e1d9255	0.15387852
51	0x3ca7e88c	0.02049663
52	0x3dd7d096	0.105378315
53	0x3d850bc9	0.064963885
54	0x3d15ea9d	0.036600698
55	0x3dad0c6e	0.084496364
56	0xbbcbc0dc	-0.006218059
57	0x3d5fb297	0.054613676
58	0x3dc9b8f3	0.098497294
59	0xbbe08558	-0.0068518333
60	0x3be0c067	0.0068588736
61	0xbdcd1ce6	-0.100152776
62	0x3da2a7cf	0.07942163
63	0x3d9fb1d3	0.07797589
64	0xbcc4cc98	-0.02402334
65	0xbc772ff0	-0.015087113
66	0x3debd4da	0.115152076
67	0x3da14170	0.07873809
68	0x3c73c100	0.014877558
69	0xbddf0d3a	-0.10891195
70	0xbde0b61a	-0.10972233
71	0xbc461c90	-0.012091771
72	0xbde6a3dc	-0.112617224
73	0xbdf1a2e4	-0.11798647
74	0xbcf0a810	-0.029377013
75	0xbcf0fe28	-0.029418066
76	0x3d8267c6	0.063674495
77	0xbd9261bc	-0.071475476
78	0x3d657b34	0.0560257
79	0x3df22a8a	0.1182452
80	0xbc27d030	-0.010242507
81	0xbcc91678	-0.024546847
82	0xbdd3ec7a	-0.10347839
83	0xbdff71a6	-0.124728486
84	0xbd245574	-0.040120557
85	0x3deab386	0.11460023
86	0x3dcab118	0.09897059
87	0x3dd7f402	0.10544588
88	0x3deb4f80	0.11489773
89	0xbde8b734	-0.11363068
90	0x3c965a70	0.01835367
91	0x3d53d6cc	0.05171852
92	0x3deafe54	0.114742905
93	0x3d1ab7cc	0.03777294
94	0xbdcc68cc	-0.09980926
95	0xbd274504	-0.040837303
96	0xbd4f4bac	-0.050609276
97	0xbd15ce78	-0.036573857
98	0x3db51db8	0.08843559
99	0x3de2edbc	0.110805005
100	0xbb482cc0	-0.0030544251
101	0x3d8ec2d2	0.06970753
102	0x3dd58a5e	0.10426782
103	0x3d69ad50	0.05705005
104	0x3dfa816c	0.122317165
105	0xbdd67bfc	-0.10472867
106	0xbd1e32b4	-0.038622573
107	0x3cf57ba0	0.029966176
108	0x3db70d5a	0.089380935
109	0x3bd2cea0	0.006433323
110	0xbdee7aae	-0.11644493
111	0xbd7f3dbc	-0.062314734
112	0xbaae6280	-0.0013304502
113	0xbcd40f80	-0.025886297
114	0xbc1dc130	-0.009628579
115	0x3dd47eee	0.103757724
116	0x3db050dc	0.08609173
117	0xbd866910	-0.06563008
118	0xbdedbac0	-0.11607885
119	0x3dbdf4be	0.092751965
120	0x3ca00290	0.019532472
121	0x3dabcd0c	0.08388719
122	0x3d643624	0.055715695
123	0x3a0c9c00	0.0005363822
124	0xbdb7672c	-0.08955225
125	0xbdaa7190	-0.083224416
126	0x3cdaca60	0.026707828
127	0x3ccf6370	0.02531597
128	0x3da4c148	0.08044678
129	0xbd8278b6	-0.0637068
130	0x3c916d0b	0.017752191
131	0xbd4128d5	-0.04715808
132	0x3d4bb4b4	0.04973288
133	0x3d610fb9	0.054946635
134	0xbe10e621	-0.14150287
135	0xbdbf88f3	-0.09352293
136	0xbd827a76	-0.06371014
137	0x3b0c7f51	0.0021438191
138	0xbd96c198	-0.07361144
139	0x3d636fc3	0.055526506
140	0x3b4fae3b	0.0031689543
141	0x3d1e2d05	0.038617153
142	0x3cc57312	0.024102721
143	0x3d521b9c	0.05129586
144	0x3d895971	0.06706513
145	0xbdf56cc2	-0.119836345
146	0x3dd39b7a	0.10332389
147	0xbd0eb81b	-0.034843545
148	0xbd1b6ebf	-0.037947413
149	0x3d42af34	0.047530368
150	0x3d807c1e	0.062736735
151	0xbe1b6004	-0.15173346
152	0x3cf0db4b	0.029401442
153	0xbdbfee49	-0.09371621
154	0x3de62a65	0.11238555
155	0x3dc60e62	0.09670712
156	0x3d99b904	0.07505992
157	0x3c7f4bfa	0.015582079
158	0xbc05f2b2	-0.008175539
159	0x3d17e612	0.037084647
160	0xbd320761	-0.04346407
161	0xbdc90026	-0.098144814
162	0x3d589719	0.052878473
163	0xbd2fd617	-0.04292878
164	0x3bec7021	0.0072155152
165	0x3ca8a2ed	0.020585502
166	0xbe1c7597	-0.15279232
167	0xbd5bd8ae	-0.05367344
168	0xbde33dba	-0.11095758
169	0x3dc0bcb2	0.09410991
170	0xbab5031f	-0.0013810134
171	0x3dbd36d0	0.0923897
172	0x3e01da50	0.12680936
173	0x3e20a440	0.15687656
174	0x3dd3b189	0.103365965
175	0xbd79a499	-0.06094799
176	0xbd195044	-0.037430063
177	0xbcecc382	-0.02890182
178	0x3e0ef99d	0.13962407
179	0x3d231a23	0.039819848
180	0x3d849a60	0.06474757
181	0x3dbd7c0c	0.09252176
182	0xbcc8ce7b	-0.02451252
183	0x3db5c273	0.08874979
184	0xbd83eb5a	-0.06441374
185	0xbd35cdda	-0.04438577
186	0xbc4e0548	-0.012574501
187	0x3d6727cf	0.05643445
188	0xbd9cceca	-0.076566294
189	0x3d6c2090	0.05764824
190	0x3c1ad9a6	0.0094513055
191	0x3c42fc74	0.01190101
192	0xbc09465c	-0.008378591
193	0x3df862ac	0.12128195
194	0x3c1ea551	0.009682969
195	0xbd624170	-0.055238187
196	0x3d0f89d7	0.035043564
197	0x3dc5ecfe	0.09664343
198	0x3e19d667	0.15023194
199	0x3ded180f	0.115768544
200	0x3de8ead5	0.11372916
201	0xbd865215	-0.06558625
202	0x3ca6c67d	0.020358318
203	0xbdc76434	-0.09735909
204	0x3dd9c440	0.10633135
205	0x3e0bcd3f	0.13652514
206	0x3df0e50a	0.11762436
207	0xbcadebbe	-0.021230575
208	0x3db85a54	0.09001604
209	0x3cccf9fd	0.025021547
210	0xbcdcd5ab	-0.026957354
211	0xbd8dd843	-0.06926014
212	0x3e20f6c3	0.15719132
213	0x3db46672	0.088086024
214	0xbaefdffb	-0.0018301004
215	0x3da60d79	0.081080385
216	0x3db08a7f	0.08620166
217	0xbd6bc92a	-0.057564892
218	0x3ca3c9df	0.01999372
219	0xbc4b0f43	-0.012393775
220	0xbc5a3092	-0.013317244
221	0x3ddd1bc2	0.1079631
222	0x3d19e9b8	0.037576407
223	0x3dadfdd7	0.08495682
224	0xbd5dcd30	-0.05415076
225	0x3d75b433	0.059986304
226	0x3d451f9f	0.04812586
227	0x3e025010	0.12725854
228	0xbd5b1485	-0.053486366
229	0x3c09e292	0.008415835
230	0x3e02a9d4	0.12760097
231	0xba9353aa	-0.0011240144
232	0x3dd27e6c	0.10278019
233	0x3da73c19	0.081657596
234	0xbd9fc1d8	-0.07800645
235	0xbda53be3	-0.08068063
236	0xbccef66e	-0.025263991
237	0x3dbe0e3c	0.09280059
238	0x3e0bccfb	0.13652413
239	0x3cbe4cfe	0.023230072
240	0xbbe0c7c8	-0.0068597533
241	0xbd5f4f52	-0.054519005
242	0x3d0a3d57	0.033749904
243	0x3d8633a0	0.065528154
244	0xbd7fbb95	-0.06243475
245	0x3dab8435	0.08374826
246	0x3dc4ae98	0.096036136
247	0xbd927243	-0.071507
248	0x3e1fa7a1	0.15591289
249	0x3cc15b40	0.023603082
250	0xbc8e696a	-0.01738425
251	0xbbb83795	-0.0056218603
252	0x3dd9ad93	0.1062881
253	0x3d902b5b	0.070395194
254	0x3cb90ce4	0.022589155
255	0x3dac7a74	0.084217936
